checkpoints/model_selector.pth (torch, 296013 bytes, 24 tensors)

fc1.weight f4 [64, 28]
0	0xbea5c7c3	-0.3237897
1	0xbd980a32	-0.074238196
2	0x3ea12257	0.31471512
3	0x3be76128	0.0070611425
4	0xbcf757d3	-0.030193245
5	0xbe0773d0	-0.13227773
6	0x3ca74a28	0.020421103
7	0x3ca2b719	0.019862698
8	0xbd932846	-0.07185416
9	0xbe3ad072	-0.18243578
10	0xbda82c04	-0.0821152
11	0x3e8dda5e	0.27705663
12	0x3e8c6980	0.2742424
13	0x3c4b0178	0.012390487
14	0x3de28236	0.11059992
15	0x3e06c5ba	0.13161364
16	0xbddac055	-0.10681216
17	0x3dace7ef	0.08442675
18	0x3e2f5a55	0.17124303
19	0xbd8cc2c6	-0.068730876
20	0x3e19c145	0.15015133
21	0x3e3e207d	0.18567081
22	0xbda3105f	-0.07962107
23	0x3da2c011	0.0794679
24	0x3dbf5ac7	0.09343486
25	0x3e2b1494	0.16707069
26	0xbdee9604	-0.11649707
27	0xbe96355f	-0.29337594
28	0xbd9dd25a	-0.07706137
29	0x3e2379d1	0.15964438
30	0xbea47433	-0.32119903
31	0xbd8144ac	-0.06311926
32	0xbe3f4ae3	-0.18680911
33	0xbe17ecad	-0.14836378
34	0x3c4d08fc	0.012514349
35	0x3d8ed13b	0.06973501
36	0x3d0ceff2	0.034408517
37	0x3e88facb	0.2675384
38	0xbd16b9b8	-0.03679821
39	0x3df7a4f8	0.12092012
40	0x3e4f57b2	0.20248297
41	0x3e589d64	0.2115379
42	0x3d95bbab	0.073111854
43	0xbe1dcf00	-0.15410995
44	0x3e4ece64	0.2019592
45	0x3e91d669	0.28483894
46	0x3e057c32	0.13035658
47	0xbe7abba7	-0.24485646
48	0xbdaaedff	-0.083461754
49	0xbe05facd	-0.13083954
50	0xbe6b5cd8	-0.22984636
51	0xbe04a718	-0.12954366
52	0x3e2ec97a	0.17069045
53	0xbe4b9000	-0.1987915
54	0xbdd5e350	-0.10443747
55	0xbe1747f1	-0.14773537
56	0xbd4479c3	-0.047967684
57	0x3e86912c	0.26282632
58	0xbeafea5a	-0.34358484
59	0xbde9e111	-0.11419881
60	0xbd2a8dd5	-0.041639168
61	0x3e338e4c	0.1753475
62	0xbe38e336	-0.18055424
63	0xbe02e304	-0.12781912
64	0xbe0c9d15	-0.13731797
65	0x3bf5c674	0.007500464
66	0x3e085f3f	0.13317584
67	0xbc1964c0	-0.0093624
68	0xbe265e6a	-0.16246954
69	0xbe2b4cd6	-0.1672853
70	0x3d92179f	0.071334116
71	0xbd91c63d	-0.07117889
72	0x3e085e9d	0.13317342
73	0xbe842fdb	-0.2581776
74	0x3e13792d	0.14401694
75	0x3e6ce90b	0.23135774
76	0xbeb17276	-0.3465764
77	0x3d9730fa	0.073823884
78	0xbe1ce57f	-0.15321921
79	0xbe1369c8	-0.14395821
80	0x3e413332	0.18867186
81	0x3a709d4c	0.00091787125
82	0x3e84588b	0.25848803
83	0x3e1c7d36	0.15282139
84	0x3eba68cd	0.36408082
85	0xbe126734	-0.14297181
86	0xbe92b598	-0.2865417
87	0x3e294705	0.16530998
88	0xbd7620ef	-0.06009
89	0xbcfd8879	-0.030948864
90	0xbe85847c	-0.2607764
91	0x3e3424ab	0.17592113
92	0xbe9a21f4	-0.3010403
93	0x3e122eea	0.14275709
94	0x3e017531	0.12642361
95	0xbd5b3a39	-0.053522322
96	0x3e61ed97	0.2206329
97	0x3e174cc3	0.14775376
98	0x3e2fec2b	0.17179935
99	0x3de25557	0.110514335
100	0x3deabd79	0.1146192
101	0x3d765b36	0.06014558
102	0xbcad29f9	-0.021138178
103	0xbe542d5c	-0.20720428
104	0x3d99675f	0.074904196
105	0xbd3485d1	-0.04407293
106	0x3d872e47	0.066006236
107	0x3ded4104	0.11584666
108	0x3d53173c	0.05153583
109	0xbd9df57d	-0.07712839
110	0x3e72ea6c	0.23722237
111	0x3eac8d81	0.3370171
112	0x3ec356a6	0.38152045
113	0xbcb2c047	-0.0218202
114	0xbdf843e9	-0.12122328
115	0xbe53b691	-0.20675112
116	0xbe80ac71	-0.25131562
117	0xbe117245	-0.14203747
118	0xbe4a5a4f	-0.19761012
119	0x3e6eeabc	0.23331732
120	0xbe566117	-0.20935474
121	0xbbc1f6fd	-0.005919336
122	0x3d6507a4	0.05591549
123	0x3e319272	0.1734102
124	0x3e16e556	0.14735922
125	0xbd6b0794	-0.057380274
126	0x3c46e4ee	0.012139542
127	0xbdd53686	-0.1041079
128	0x3e73eea5	0.23821504
129	0x3e46a6d8	0.19399583
130	0x3dce16ed	0.100629665
131	0x3d454a4d	0.048166562
132	0x3e763813	0.24044828
133	0xbe717ca0	-0.23582697
134	0xbe5905ef	-0.2119367
135	0xbdc90e6b	-0.09817203
136	0x3e0ab583	0.13545804
137	0xbe93a0e4	-0.28833687
138	0x3da07ff5	0.07836906
139	0xbe1e1752	-0.15438583
140	0x3e909921	0.28241828
141	0xbe32ce98	-0.17461622
142	0xbe9e783c	-0.30951107
143	0xbdd34ada	-0.10317011
144	0x3dace4f6	0.08442108
145	0xbcfb5437	-0.030679805
146	0x3df08396	0.11743848
147	0xbd78b8a2	-0.060722955
148	0xbe0e3c43	-0.13890176
149	0x3d929432	0.07157172
150	0x3db188e7	0.0866869
151	0xbdf609f3	-0.120136164
152	0x3e83cd0e	0.25742382
153	0x3d91568e	0.07096587
154	0x3e07ef68	0.1327492
155	0x3c9f9b89	0.019483345
156	0x3e8d85fc	0.27641284
157	0xbe7d41e6	-0.2473217
158	0xbd900b61	-0.0703342
159	0x3e656041	0.22399999
160	0xbd84b7a9	-0.06480343
161	0x3e88bc2a	0.26706058
162	0xbdf347cc	-0.118789285
163	0xbe5a862c	-0.21340245
164	0x3ea739eb	0.32661375
165	0x3eb9fa7e	0.36323923
166	0x3e585fb0	0.21130252
167	0xbd586844	-0.05283381
168	0x3cbc98b1	0.023022028
169	0xbd721cc5	-0.059109468
170	0x3eb54dbe	0.35410875
171	0x3d72ce5f	0.059278842
172	0xbca52598	-0.020159528
173	0xbec78574	-0.38969004
174	0xbd011a7a	-0.03151939
175	0x3e97ff3f	0.29686925
176	0xbe7cab96	-0.2467483
177	0xbdcf33e5	-0.1011732
178	0xbe4a3532	-0.19746855
179	0x3d4970cb	0.049179833
180	0x3cb2ce71	0.021826955
181	0xbd0a6462	-0.03378714
182	0xbc16fc95	-0.009215494
183	0xbace80d6	-0.0015754949
184	0xbd276bc6	-0.040874265
185	0x3e1c1380	0.15241814
186	0x3dc37784	0.0954428
187	0xbe02364b	-0.12716024
188	0x3e3086b8	0.17238891
189	0x3eaafefa	0.33397657
190	0x3e9a7dcb	0.30174097
191	0x3e09a70a	0.13442627
192	0xbd3ba52c	-0.045811817
193	0x3e30b32c	0.17255849
194	0xbd41e7d9	-0.047340248
195	0x3e9f3483	0.3109475
196	0x3eb48724	0.35259354
197	0xbdbc4161	-0.091921575
198	0xbe188b6c	-0.14896935
199	0x3d9ed484	0.07755378
200	0xbd0e0549	-0.03467301
201	0x3e4f03d6	0.20216307
202	0xbe00d2fc	-0.12580484
203	0x3dca9aaf	0.09892785
204	0x3e6117ba	0.21981707
205	0x3e386e73	0.18010883
206	0xbde279a5	-0.11058358
207	0xbd9e8d3b	-0.07741781
208	0x3e856a7f	0.26057813
209	0xbd2c423d	-0.042055357
210	0xbdb32585	-0.08747391
211	0x3e54de51	0.20787932
212	0x3b3954f3	0.0028279393
213	0x3e1d75b2	0.15376928
214	0x3e3d1354	0.18464404
215	0xbdbb0444	-0.09131673
216	0x3e94c1d0	0.29054117
217	0xbc81c3e4	-0.015840478
218	0x3de15c83	0.11003973
219	0xbdc1ae13	-0.0945703
220	0x3e0cc07a	0.13745299
221	0x3e972758	0.29522204
222	0xbd83a94d	-0.06428776
223	0x3eda9d28	0.42698026
224	0xbe25b527	-0.16182385
225	0x3df0cd8f	0.11757957
226	0x3e07c9c3	0.1326056
227	0x3a881ca8	0.0010384517
228	0x3db74fa8	0.0895074
229	0x3dc287a0	0.09498525
230	0xbd9fcac0	-0.07802343
231	0xbe72464b	-0.23659627
232	0xbe3036b5	-0.17208369
233	0xbd57987e	-0.052635662
234	0x3c5c5c9f	0.013449817
235	0x3d18a478	0.037266225
236	0xbda2fa19	-0.079578586
237	0xbe5d9af5	-0.21641143
238	0xbe7273cf	-0.2367699
239	0xbd278d81	-0.040906433
240	0xbea4ecd6	-0.3221194
241	0x3e3b50e1	0.18292572
242	0xbdc2b5b2	-0.09507312
243	0xbd16ff8c	-0.036864802
244	0x3c08940b	0.008336077
245	0x3db26faa	0.087127045
246	0x3dfd839b	0.123786174
247	0x3c776070	0.015098676
248	0x3de767be	0.11299084
249	0x3e41a38f	0.18910049
250	0x3ea7eaed	0.32796422
251	0x3e67433f	0.22584246
252	0x3e473a20	0.19455767
253	0x3d0b5251	0.03401405
254	0x3deb5261	0.11490322
255	0xbc446288	-0.011986382

fc1.bias f4 [64]
0	0x3d99e245	0.075138606
1	0x3df2142b	0.11820253
2	0x3db586f0	0.08863628
3	0x3d44acb3	0.04801626
4	0x3db46fa2	0.08810355
5	0x3d90e3e4	0.07074717
6	0x3d92b510	0.07163441
7	0x3c125968	0.008932449
8	0x3d56c961	0.052438144
9	0x3d78043a	0.060550906
10	0x3d300e46	0.042982362
11	0x3ddd0af1	0.107931025
12	0x3e064b72	0.13114718
13	0x3d76e637	0.060278144
14	0x3d052295	0.032503683
15	0x3d8c6ffb	0.06857296
16	0x3d7d00eb	0.061768454
17	0x3d5a6796	0.053321443
18	0x3d7190e0	0.058976054
19	0x3d6bb23c	0.057543024
20	0x3db86f41	0.09005595
21	0x3d42b4ee	0.04753583
22	0x3d525935	0.051354606
23	0x3cf8633f	0.030320762
24	0x3dae0eff	0.08498954
25	0x3d4883e2	0.0489539
26	0x3d71b47e	0.05901002
27	0x3d880e28	0.06643325
28	0x3c9f17f9	0.01942061
29	0x3ddb619e	0.107119784
30	0x3d3e5250	0.046465218
31	0x3d1bf50b	0.038075488
32	0x3cce27ff	0.025165556
33	0x3def34ed	0.11680017
34	0x3d787c1a	0.060665227
35	0x3da090c8	0.07840115
36	0x3dd9d4b8	0.10636276
37	0x3c940504	0.018068798
38	0x3db8433b	0.08997198
39	0x3a65c76c	0.0008765373
40	0x3d5e5b00	0.054286003
41	0x3d86609d	0.06561396
42	0x3dd9652a	0.10614999
43	0x3db3d38f	0.08780586
44	0x3d89a29f	0.06720471
45	0x3dc180f7	0.09448426
46	0x3cc36a43	0.02385438
47	0x3d745a43	0.059656393
48	0x3c1a552d	0.009419722
49	0x3d3ba362	0.04581011
50	0x3dfa4107	0.12219434
51	0x3d861f68	0.06548959
52	0x3d8d52c3	0.06900551
53	0x3dd0538c	0.10172185
54	0x3d8fcee3	0.070218824
55	0x00000000	0.0
56	0x3a855325	0.0010171874
57	0x3d783ca4	0.060604706
58	0x3d333dab	0.043759983
59	0x3d9b1566	0.07572441
60	0x3d11f133	0.035630416
61	0x3c9fcbca	0.019506354
62	0x3d399bc6	0.045314573
63	0x3df4149e	0.11917995

fc2.weight f4 [128, 64]
0	0xbdd626a4	-0.10456589
1	0x3b228b87	0.0024802403
2	0xbe274a2e	-0.16336891
3	0x3e2af234	0.16693956
4	0x3d965401	0.07340241
5	0x3d422883	0.047401916
6	0x3e23de58	0.16002786
7	0xbdbef207	-0.09323507
8	0xbe7996c0	-0.24373913
9	0x3d8f26cf	0.06989824
10	0x3e469644	0.1939326
11	0x3ddb8b4c	0.10719928
12	0xbc890e8e	-0.016730573
13	0x3d66996e	0.056298666
14	0xbda8a241	-0.082340725
15	0xbcce5c39	-0.02519046
16	0x3e2d7139	0.16937722
17	0xbe220b57	-0.15824638
18	0xbd946323	-0.07245471
19	0x3d8f4577	0.06995671
20	0x3dcb8380	0.09937191
21	0xbccbcdd1	-0.024878414
22	0x3e3f092a	0.1865584
23	0xbe4262ba	-0.18982974
24	0x3d4056e2	0.046957858
25	0x3dbd5322	0.09244372
26	0x3d933edb	0.07189723
27	0x3e0e17f0	0.13876319
28	0x3e06951e	0.13142821
29	0x3e46c5df	0.1941142
30	0x3e1a4366	0.15064773
31	0x3de37a36	0.11107294
32	0x3e019463	0.12654261
33	0x3e447b6c	0.19187707
34	0x3e0abc3b	0.13548367
35	0x3d7e429e	0.06207525
36	0xbe5afc80	-0.21385384
37	0x3db38fa0	0.08767629
38	0x3c3f00e7	0.01165793
39	0x3e8af91b	0.27143177
40	0xbdb05ccc	-0.086114496
41	0x3d0064f6	0.031346284
42	0xbe64455c	-0.22292084
43	0xbc82a320	-0.015946925
44	0x3dba0f54	0.09084955
45	0xbe233a74	-0.15940267
46	0xbe5b2e96	-0.2140449
47	0xbca4bba8	-0.020109013
48	0x3a8b4edb	0.0010628359
49	0x3e4fa0b9	0.20276155
50	0x3c1f4429	0.0097208405
51	0x3dd43662	0.10361935
52	0xbe5e29d6	-0.21695647
53	0x3e35ee0e	0.17766592
54	0x3d73296c	0.059365675
55	0xbcd47b12	-0.02593759
56	0x3df96603	0.1217766
57	0x3e3d369e	0.18477866
58	0xbe1a9e36	-0.15099415
59	0xbd1ec725	-0.038764138
60	0x3d620753	0.055182766
61	0xbd237b0d	-0.039912272
62	0x3d9ea799	0.077468105
63	0xbad766c6	-0.0016433827
64	0x3d6fa6c2	0.058508642
65	0x3df73d40	0.120722294
66	0xbde15f7b	-0.110045396
67	0x3cfe86b5	0.031070093
68	0xbde8e59b	-0.11371919
69	0x3e1bf039	0.15228356
70	0x3c5ad82b	0.0133572025
71	0x3e28f080	0.16497993
72	0x3e218600	0.15773773
73	0x3df277d6	0.11839263
74	0x3dc30197	0.095217876
75	0x3cae8155	0.021301905
76	0xbd8f60c0	-0.070008755
77	0xbd5cc8f0	-0.053902566
78	0xbdd66d49	-0.10470063
79	0xbd03f4da	-0.03221593
80	0xbe0c14d8	-0.13679826
81	0xbdc44f81	-0.09585477
82	0xbd064cfd	-0.032788265
83	0xbdfaad5c	-0.12240097
84	0xbd2bf85b	-0.041984897
85	0x3d06acfd	0.03287982
86	0xbe3c6fda	-0.18402043
87	0xbc0bed8b	-0.008540521
88	0xbccc60c7	-0.02494849
89	0x3e02eb3e	0.1278505
90	0x3e3b85d9	0.18312778
91	0x3e058c09	0.130417
92	0xbe27384c	-0.1633007
93	0xbdf4b4bb	-0.11948534
94	0x3da53211	0.0806619
95	0xbe207f6c	-0.15673608
96	0xbe1ed0f6	-0.155094
97	0xbe20684f	-0.1566479
98	0xbe22ca66	-0.15897521
99	0x3dc2dc6d	0.09514699
100	0xbcd95a48	-0.026532307
101	0x3d8fe668	0.070263684
102	0xbce01de0	-0.027357996
103	0xbdadd75d	-0.08488343
104	0xbcdb8cca	-0.026800532
105	0x3e20af53	0.15691881
106	0x3cf65d76	0.030073863
107	0xbe0f3d6d	-0.13988276
108	0x3e2b2ddf	0.16716717
109	0x3d4b2d08	0.049603492
110	0x3def3f50	0.11681998
111	0xbc2dfe9f	-0.010619788
112	0xbe2c59f5	-0.16831191
113	0x3bdd23c0	0.0067486465
114	0xbe1057b3	-0.14095955
115	0xbdf03730	-0.11729276
116	0x3deaf9ba	0.11473413
117	0x3d451b35	0.04812165
118	0xbda3b285	-0.07993034
119	0xbd4f0cd0	-0.05054933
120	0xbdbaab3c	-0.091146916
121	0x3e2abfdd	0.16674753
122	0x3d0208c7	0.031746652
123	0xbdcae268	-0.09906465
124	0xbe0839f1	-0.13303353
125	0x3afbfd2f	0.0019225235
126	0xbbe3139b	-0.0069298274
127	0x3e250347	0.16114531
128	0xbd8fda98	-0.07024115
129	0x3cd48c3d	0.025945777
130	0xbddb427c	-0.1070604
131	0x3e091d93	0.13390188
132	0xbd1e4490	-0.038639605
133	0x3dcfe713	0.10151496
134	0xbd5114b9	-0.051045153
135	0xbd7e5e6a	-0.06210176
136	0xbe02b4af	-0.12764238
137	0xbdb1590b	-0.08659562
138	0xbd851d22	-0.06499697
139	0x3e5cf684	0.21578413
140	0xbda1b4b2	-0.07895793
141	0x3e65be0b	0.22435777
142	0x3e0cbfb6	0.13745007
143	0x3d336419	0.043796632
144	0xbda9c04b	-0.0828863
145	0xbbdddd66	-0.0067707775
146	0x3e314009	0.17309584
147	0x3ddab107	0.106782965
148	0xbe815384	-0.2525903
149	0x3d7687bc	0.06018804
150	0x3d458245	0.048219938
151	0x3e2f1105	0.17096336
152	0xbdd03e94	-0.10168186
153	0xbc1ddf59	-0.00963577
154	0x3e0193bd	0.12654014
155	0xbc995621	-0.018717827
156	0x3d70bf6f	0.058776315
157	0xbe055e8f	-0.13024352
158	0x3e1f689a	0.15567246
159	0xbda9f0da	-0.08297892
160	0x3d24644c	0.040134713
161	0x3e8c24b8	0.27371764
162	0x3da22e00	0.0791893
163	0x3d502bc6	0.050822996
164	0x3dbc6b59	0.092001624
165	0x3e14c642	0.14528754
166	0xbe52a7cd	-0.20571823
167	0x3de2e545	0.11078886
168	0xbc0d2ade	-0.008616177
169	0x3e11b42f	0.14228891
170	0x3d4fe362	0.05075396
171	0xbd9b2d7b	-0.07577034
172	0x3d671ab0	0.056421936
173	0x3ccd844e	0.025087502
174	0xbdb806e8	-0.08985692
175	0x3d9ea89e	0.07747005
176	0x3dcfef4e	0.101530656
177	0xbe82a5cb	-0.25517115
178	0x3e09418d	0.13403912
179	0xbd6aae50	-0.057295144
180	0xbdb295aa	-0.087199524
181	0x3e577e4b	0.2104427
182	0xbd57195b	-0.052514415
183	0x3de722fb	0.11285969
184	0x3e32450c	0.17409152
185	0x3cf5806b	0.029968461
186	0xbe4709e7	-0.19437371
187	0x3e0a1452	0.13484314
188	0xbdcb5e48	-0.09930092
189	0xbe2f96c1	-0.17147352
190	0xbe1c0718	-0.15237081
191	0x3e477dc2	0.19481567
192	0xbd2a2499	-0.04153881
193	0x3e360d60	0.1777854
194	0x3d3d8da9	0.046277676
195	0xbc8ef48f	-0.017450599
196	0x3dfe590a	0.124193266
197	0x3e3b7bc1	0.18308927
198	0x3e4dbda0	0.20091867
199	0x3d807653	0.062725686
200	0xbc7b5750	-0.015340641
201	0x3db86a69	0.09004671
202	0xbd8a5f6f	-0.06756484
203	0x3e0d55a0	0.13802195
204	0xbbb1e8f3	-0.005429381
205	0x3e16d8ad	0.14731093
206	0x3d993299	0.07480354
207	0xbd4d90c8	-0.050186902
208	0xbdf33235	-0.118748106
209	0x3b2a1d85	0.0025957536
210	0xbd5aad65	-0.05338802
211	0x3ba2ae06	0.004964593
212	0xbdd9f8a8	-0.106431305
213	0x3da29fd6	0.079406425
214	0x3e546127	0.20740186
215	0x3db46ed2	0.088102
216	0xbc5e6821	-0.013574631
217	0xbe652fab	-0.22381465
218	0xbd9c1d12	-0.07622732
219	0xbe1ad0a1	-0.15118648
220	0x3d0fa170	0.03506607
221	0x3e1db080	0.1539936
222	0x3e309048	0.17242539
223	0x3dbfdffd	0.09368894
224	0x3bef744e	0.007307566
225	0xbcf53344	-0.029931672
226	0x3e43dfea	0.19128385
227	0xbd94e6a1	-0.072705515
228	0x3cdb456f	0.026766507
229	0x3debff7c	0.11523339
230	0xbe10419a	-0.14087525
231	0x3e18ba02	0.14914706
232	0xbd4669ad	-0.048440624
233	0x3e588974	0.21146184
234	0xbd46587e	-0.048424236
235	0xbda30e31	-0.07961691
236	0x3da33f8c	0.07971105
237	0xbdee6ce7	-0.11641865
238	0xbde456d1	-0.111493714
239	0xbccf1f6e	-0.025283542
240	0x3e353fcb	0.17700116
241	0x3dcf0a27	0.10109358
242	0x3e38e6f0	0.18056846
243	0xbd898c21	-0.067161806
244	0x3c8a24b4	0.016863205
245	0x3d1fb2e7	0.038988974
246	0x3e3f217e	0.1866512
247	0x3c5926b4	0.013253856
248	0xbde599bf	-0.11210965
249	0x3d6acdc7	0.05732515
250	0xbdb1c9da	-0.08681078
251	0x3d90d851	0.07072509
252	0x3dfe1d67	0.12407952
253	0xbe48c748	-0.1960727
254	0xbe28e31c	-0.16492885
255	0xbc3732d1	-0.011181549

fc2.bias f4 [128]
0	0xbb815f93	-0.003948161
1	0x3d076d64	0.033063307
2	0x3c1cf1bf	0.009579121
3	0x3cdb47b7	0.026767595
4	0x3d7a8972	0.061166234
5	0x3cc4715e	0.023979839
6	0x3cf93066	0.030418586
7	0x3d831a48	0.06401497
8	0x3c808a4c	0.015690945
9	0xbcfc5a8e	-0.030804899
10	0x3cdf75ad	0.027277792
11	0x3d2e40a6	0.042542122
12	0x3c3c58a0	0.011495739
13	0x3cc89b0e	0.024487998
14	0x3caf64ab	0.021410307
15	0x3d31a28d	0.04336791
16	0x3cbce0c3	0.023056393
17	0xbc59f25a	-0.01330241
18	0x3d4b12b3	0.04957838
19	0x3d1617e6	0.036643885
20	0x3c933713	0.017970597
21	0xbc764d03	-0.015033009
22	0x3cc49dad	0.024000967
23	0x3d16498e	0.03669124
24	0x3cba451c	0.022738032
25	0x3d13251c	0.035924062
26	0xbc8f9e6c	-0.017531596
27	0x3ccb97a3	0.02485258
28	0x3d2678fb	0.04064272
29	0x3d10b45b	0.03532825
30	0xbbab5533	-0.0052286624
31	0x3cac2c56	0.021017235
32	0x3cafac08	0.021444336
33	0xbc36112f	-0.011112495
34	0x3cd78690	0.026309282
35	0x3d01e857	0.031715717
36	0xbcedd75c	-0.029033355
37	0x3c5e43d4	0.013565976
38	0x3d479878	0.04872939
39	0x3ceedb6e	0.029157367
40	0x3d7aa4bb	0.061192255
41	0x00000000	0.0
42	0x3cf4cfab	0.02988418
43	0x3d4bd224	0.049760953
44	0x3cd66aa8	0.026173905
45	0x3c50c5e6	0.012742495
46	0x3d20196f	0.039086755
47	0x3d780232	0.06054897
48	0x3d2efa01	0.04271889
49	0x3d67c3cd	0.056583215
50	0x00000000	0.0
51	0x3c9504a4	0.01819069
52	0x3ccc2a58	0.024922535
53	0xbbc4c8e6	-0.0060053943
54	0x3d344720	0.044013143
55	0x3c617e2b	0.013762991
56	0x3cac8f4a	0.02106442
57	0x3d2cfec9	0.04223517
58	0x3d85f18f	0.06540214
59	0x3ccb1bd8	0.02479355
60	0x3d1e5706	0.03865721
61	0x3d0c259f	0.034215566
62	0x3d26efd7	0.040756073
63	0x3d2c12d0	0.04201013
64	0x3d3cd02f	0.046096977
65	0x3ce5cdf8	0.028052315
66	0x3d7fa642	0.062414415
67	0x3ca6b015	0.020347634
68	0x3d48d886	0.049034618
69	0x3c4acb2e	0.012377543
70	0x3cbe9146	0.023262631
71	0x3d844eb0	0.06460321
72	0x3d8765d5	0.0661122
73	0x3cf145ee	0.02945229
74	0x3d33b57c	0.04387425
75	0x3c580dd1	0.013186888
76	0x3ce5b7ed	0.028041804
77	0x3c3ac536	0.011399558
78	0x3cbc8a5e	0.023015197
79	0x3ce57439	0.02800952
80	0x3d26f90a	0.040764846
81	0x3c0c624d	0.008568359
82	0x3d3422a4	0.04397835
83	0x3d56233c	0.052279696
84	0x3d088081	0.033325676
85	0x3d1ac4cd	0.03778534
86	0x3cf82d7f	0.030295132
87	0x3d3b9613	0.04579742
88	0x00000000	0.0
89	0x3b39f596	0.002837514
90	0x3d5dea68	0.054178625
91	0x3cdaac6b	0.026693543
92	0x3c39fac8	0.011351295
93	0x3d5651ad	0.052323986
94	0x3ca98e05	0.020697603
95	0x3ca8361f	0.02053362
96	0x3cf3e765	0.029773423
97	0x3d652e56	0.055952393
98	0x3be2a9ea	0.006917228
99	0x3d1ce337	0.038302626
100	0x3b621721	0.003449865
101	0xbc2743b6	-0.010209015
102	0x3d81ebbb	0.0634379
103	0x3d1f164b	0.03883962
104	0x3cc3c283	0.023896461
105	0x3cf6f273	0.030144906
106	0x3cfb39a5	0.030667135
107	0x3d099986	0.033593677
108	0x3d41107f	0.047134873
109	0x00000000	0.0
110	0x3d2c3a0c	0.042047545
111	0x3c20883e	0.009798108
112	0x3d5ba561	0.053624514
113	0x3d277805	0.040885944
114	0x3d117796	0.035514437
115	0x3d6bdf80	0.057586193
116	0x3d5b17ef	0.05348962
117	0x3cb1bf2d	0.021697605
118	0xbb11b6e0	-0.0022234246
119	0x3cfca8cf	0.030842213
120	0xbc97eb1f	-0.018544732
121	0x3d104328	0.035220295
122	0x3d162c6e	0.036663465
123	0x3d685858	0.056724876
124	0x3c67bac1	0.014143647
125	0x3c269afe	0.010168789
126	0x3d547e62	0.05187834
127	0x3cc03644	0.023463376

fc3.weight f4 [64, 128]
0	0xbe0cdf01	-0.13756944
1	0x3cd2e1bf	0.02574241
2	0xbd22dedd	-0.03976332
3	0x3e2217df	0.15829419
4	0x3e18ce5f	0.14922474
5	0x3d90e1b9	0.07074303
6	0xbd907bfa	-0.07054897
7	0xbe209523	-0.15681891
8	0xbdffcfbf	-0.12490796
9	0xbdc4b9f8	-0.09605783
10	0xbdefa1c2	-0.11700775
11	0x3d87786f	0.06614768
12	0x3e564126	0.2092329
13	0xbd1db10e	-0.03849893
14	0x3c72ee02	0.014827253
15	0x3e69a280	0.22815895
16	0xbd84b330	-0.0647949
17	0x3e04f11b	0.129826
18	0xbddb70f5	-0.10714904
19	0x3e369a65	0.17832334
20	0xbd38c16c	-0.045106336
21	0x3da19feb	0.0789183
22	0xbdcf0ab6	-0.10109465
23	0x3df4f60c	0.11960992
24	0xbcc6ffda	-0.024291921
25	0xbdaf89ca	-0.08571203
26	0xbe24ed70	-0.161062
27	0xbd82c186	-0.06384568
28	0x3e1fa898	0.15591657
29	0xbcb3ac64	-0.021932788
30	0x3b13b3d4	0.0022537606
31	0x3e13f822	0.14450124
32	0x3d52ec6e	0.05149501
33	0x3e4b02ec	0.19825333
34	0x3e569e30	0.20958781
35	0xba93d692	-0.0011279157
36	0x3d0c1d0f	0.0342074
37	0x3e7d4bc3	0.24735932
38	0xbcc50f68	-0.024055198
39	0x3c5e1a35	0.013556053
40	0x3d4df2a9	0.050280247
41	0x3d2c36d9	0.042044494
42	0x3cff58b5	0.031170228
43	0xbdcb47d6	-0.09925811
44	0x3e21dc8a	0.15806785
45	0x3cb52118	0.022110507
46	0xbd345e35	-0.044035155
47	0x3e43023e	0.19043824
48	0x3e6daaae	0.2320964
49	0x3b681653	0.0035413697
50	0xbe112e16	-0.14177737
51	0xbdee456d	-0.11634336
52	0xbd4228eb	-0.047402304
53	0xbe2f1114	-0.17096359
54	0x3e26fb7e	0.16306874
55	0x3de7b8ec	0.11314568
56	0xbdec11d0	-0.11526835
57	0x3c11dd56	0.008902868
58	0x3d909194	0.07059017
59	0xbbce690c	-0.0062991437
60	0x3c5a7baa	0.013335148
61	0xbdbbded5	-0.09173361
62	0x3e53f594	0.2069915
63	0x3d035e0a	0.032072105
64	0x3e2daaba	0.16959658
65	0x3cd55f6b	0.026046475
66	0x3e5a21fe	0.2130203
67	0xbe0acd67	-0.13554917
68	0x3db38a6b	0.087666355
69	0xbe093c68	-0.1340195
70	0x3e52b1d0	0.20575643
71	0xbd7d4f75	-0.061843354
72	0xbc54aa0f	-0.012979998
73	0xbdf079ac	-0.11741957
74	0xbe3f1831	-0.18661572
75	0xbe24cf56	-0.16094717
76	0xbe089255	-0.13337071
77	0x3e45b87f	0.19308661
78	0x3d47ddcb	0.048795503
79	0x3dd7e453	0.10541596
80	0x3e9be5bc	0.3044871
81	0xbddc3cc4	-0.107537776
82	0xbbfa04d5	-0.0076299706
83	0xbd53a75c	-0.05167328
84	0x3e4a1638	0.19735038
85	0xbe1dc942	-0.15408805
86	0xbdc022ce	-0.093816385
87	0x3d9fccb9	0.078027196
88	0x3cebdcc6	0.028791796
89	0x3e2cf9e0	0.16892195
90	0xbcdb76b2	-0.026789997
91	0xbd24620a	-0.04013256
92	0x3df11fbd	0.11773632
93	0x3e2d8f94	0.16949302
94	0x3e90e1d9	0.28297308
95	0x3e4544ae	0.1926448
96	0xbdce0ec5	-0.10061411
97	0x3e0cc81a	0.13748208
98	0x3dc55181	0.09634686
99	0xbe2b9d54	-0.16759235
100	0x3e1566dc	0.14590019
101	0xbdeec25a	-0.11658163
102	0x3e42c8aa	0.1902186
103	0x3d457758	0.04820952
104	0xbd835d1a	-0.06414242
105	0xbb9ffd4d	-0.0048824907
106	0xbe07255f	-0.1319785
107	0xbdfbc360	-0.12293124
108	0x3b03e445	0.0020125073
109	0x3ca4903a	0.020088304
110	0xbd69aa0e	-0.057046942
111	0xbe4efc0f	-0.2021334
112	0x3db6e40f	0.089302175
113	0x3e1c169d	0.15243001
114	0x3e0bafca	0.13641277
115	0xbce895d5	-0.028391758
116	0xbcd48353	-0.025941527
117	0xbdd26084	-0.10272315
118	0x3c8c8ee8	0.017157987
119	0xbdd3b4ac	-0.10337195
120	0xbe461e2f	-0.19347452
121	0xbdcc6a5d	-0.09981225
122	0xbdc9374a	-0.09824999
123	0x3df44132	0.119264975
124	0xbc74dd84	-0.014945392
125	0x3dff5256	0.12466876
126	0xbe0dadf2	-0.13835886
127	0x3e7e8383	0.24854855
128	0x3e0f782d	0.14010687
129	0x3db23f04	0.087034255
130	0x3cc78d1d	0.02435928
131	0xbe41a7c0	-0.18911648
132	0xbdfbda65	-0.12297515
133	0x3c9aafea	0.01888271
134	0xbc7863ca	-0.01516051
135	0x3d88fadf	0.06688475
136	0x3d9560d9	0.07293863
137	0xbc70e75b	-0.014703597
138	0x3d084f15	0.033278544
139	0xbd9477d6	-0.072494194
140	0x3e096756	0.13418326
141	0xbe5423c6	-0.20716771
142	0x3d8b9664	0.06815794
143	0x3e0ee58c	0.13954753
144	0xbca804e3	-0.020510143
145	0x3d9cd588	0.07657915
146	0xbda5b03b	-0.08090254
147	0x3cc70887	0.024296058
148	0xbc795871	-0.01521884
149	0x3cf169f1	0.029469462
150	0xbd2b959f	-0.041890737
151	0x3d2f09bd	0.042733897
152	0xbda96915	-0.08271996
153	0x3d4715f6	0.048604928
154	0x3ddedfd5	0.10882536
155	0x3e1903c1	0.14942838
156	0x3e0ceb32	0.13761595
157	0xbda4b9b4	-0.080432326
158	0xbd01a503	-0.031651508
159	0x3e2dce06	0.16973123
160	0x3dbd72e6	0.09250431
161	0x3da05ff6	0.07830803
162	0x3d8fee09	0.070278235
163	0xbe304c7c	-0.17216676
164	0x3e084779	0.13308515
165	0x3e04823d	0.12940307
166	0x3d412ad6	0.047159992
167	0xbdd694ef	-0.104776256
168	0xbd9fc647	-0.0780149
169	0xbd80ee49	-0.06295449
170	0x374f9580	1.237297e-05
171	0x3db43607	0.087993674
172	0x3ccfbf06	0.025359642
173	0x3bb0e47c	0.005398331
174	0xbbfe5e5f	-0.0077627148
175	0x3e0f9322	0.1402097
176	0xba9d8de8	-0.0012020441
177	0xbda2cdf9	-0.079494424
178	0x3dccd7a2	0.10002066
179	0xbd6f6ac5	-0.058451433
180	0x3d52eaa2	0.051493295
181	0xbd6390c3	-0.055557977
182	0x3d959ed3	0.07305684
183	0xbd4981aa	-0.049195923
184	0x3dbca32e	0.092108116
185	0xbda6930e	-0.08133517
186	0xbd3fa1c6	-0.04678514
187	0x3e5c7984	0.2153073
188	0xbe0707d9	-0.13186587
189	0x3d177182	0.036973484
190	0xbd0e6ee1	-0.03477371
191	0x3d5c578b	0.053794425
192	0xbdc329ad	-0.095294334
193	0x3d3432df	0.043993827
194	0xbdb6d8a6	-0.08928041
195	0xbb90816a	-0.0044099586
196	0x3e230ee9	0.15923657
197	0x3e384acc	0.17997283
198	0x3c8a9a59	0.016919302
199	0xbe31fc8b	-0.17381494
200	0xbe36d367	-0.17854081
201	0xbd99883e	-0.07496689
202	0x3d5bf39c	0.05369912
203	0x3dbc38e1	0.09190536
204	0xbd892a84	-0.06697562
205	0x3e0113d4	0.1260522
206	0x3da1c231	0.07898367
207	0xbced6449	-0.028978484
208	0x3e16bc9c	0.14720386
209	0xbc29db77	-0.010367266
210	0x3c8f03c2	0.017457847
211	0xbc400540	-0.011720002
212	0x3dbd4a4f	0.09242689
213	0xbdf34100	-0.11877632
214	0xbc801533	-0.015635109
215	0xbcba146a	-0.022714812
216	0x3dcfd9b2	0.10148944
217	0xbe36ff59	-0.17870845
218	0x3cf7bad8	0.030240461
219	0x3d51d8f2	0.051232286
220	0x3e37b6dd	0.1794085
221	0x3d924f26	0.071440026
222	0x3d9cfcaf	0.07665383
223	0xbd413708	-0.047171623
224	0xbe1c788b	-0.15280358
225	0xbdb0cf02	-0.086332336
226	0x3e40af15	0.18816788
227	0xbb433280	-0.002978474
228	0x3d323fe8	0.043517977
229	0x3e244457	0.16041695
230	0xbe6ce823	-0.23135428
231	0x3df32913	0.11873069
232	0x3dc6f021	0.0971377
233	0x3da70765	0.08155707
234	0x3bff5ab4	0.007792795
235	0xbd9d432c	-0.07678828
236	0x3d5d4dbc	0.05402921
237	0x3d34c65f	0.044134494
238	0x3c26bd25	0.0101769315
239	0xbcf37591	-0.029719146
240	0xbdebf6b0	-0.11521661
241	0x3d95fb1b	0.07323285
242	0xbdbd4dc6	-0.0924335
243	0xbd4a2f63	-0.049361598
244	0xbda4f85c	-0.08055183
245	0xbe0d3b80	-0.13792229
246	0xbe0939be	-0.13400933
247	0xbd3f8d4e	-0.046765618
248	0xbe14c58c	-0.14528483
249	0x3dfcf347	0.12351089
250	0xbde1ae6a	-0.11019595
251	0x3daaffed	0.08349595
252	0x3dd20dd7	0.10256546
253	0xbd1fc1e6	-0.039003275
254	0x3b8efbcf	0.004363514
255	0x3e2e83c5	0.17042454

fc3.bias f4 [64]
0	0x3cdd57c3	0.027019387
1	0xbc1e2987	-0.009653456
2	0x3d0e8860	0.034798026
3	0x3cdb7696	0.026789945
4	0x3d055acc	0.032557294
5	0x3c0d7776	0.008634439
6	0x3d326bf8	0.04356
7	0x3cc0fdce	0.023558524
8	0xbc834135	-0.016022304
9	0x3c86ad37	0.016440017
10	0x3cd2328b	0.025658866
11	0x3d2592d5	0.040423233
12	0xbbc92041	-0.006137878
13	0x3c63bb70	0.013899669
14	0x3d191239	0.037370894
15	0x3ca53953	0.020168936
16	0x3d2781e7	0.04089537
17	0x3ce62015	0.02809147
18	0x3ce329bc	0.027729861
19	0x3d3c06d4	0.04590495
20	0x3c6da0c6	0.014503663
21	0x3cd813c8	0.02637662
22	0x3ca5c40a	0.02023508
23	0x3d15dcc5	0.036587495
24	0x3d35fa24	0.044428006
25	0x00000000	0.0
26	0x3cb805e3	0.022463745
27	0x3b672cba	0.0035274462
28	0x3cc73c75	0.02432082
29	0x3d1aa8f9	0.0377588
30	0x3d29966e	0.041403227
31	0xba747568	-0.0009325356
32	0x3c1f147a	0.009709472
33	0x3ced2236	0.028946977
34	0x3d1f62e7	0.03891268
35	0x3cb91a63	0.02259559
36	0x3c4bcfee	0.012439711
37	0x3caada06	0.020855915
38	0x3ca93770	0.020656317
39	0x3cd04f8b	0.025428554
40	0x3cd7169c	0.026255898
41	0x3d39e9cc	0.04538898
42	0x3c40ca79	0.011767023
43	0x3cb18c8f	0.021673469
44	0x3d41de42	0.047331102
45	0x3d88c2ca	0.06677778
46	0x3d4e0255	0.050295193
47	0x3d5fd1bb	0.054643374
48	0x3d184890	0.037178576
49	0xbb2f3e0b	-0.0026739861
50	0x38f6f5a8	0.00011775951
51	0xbc209703	-0.009801629
52	0x3c1fc3be	0.009751258
53	0x3d022c07	0.03178027
54	0x3d0c291f	0.034218904
55	0xbc131582	-0.008977296
56	0x3d60b34e	0.0548585
57	0x3b8e5d99	0.004344654
58	0x3cd05faf	0.02543625
59	0x3cdc386b	0.026882371
60	0x3d064444	0.032779947
61	0x3c9ebcad	0.019377077
62	0x3d4970fb	0.049180012
63	0x3d00c433	0.03143711

fc4.weight f4 [80, 64]
0	0xbe3a30a0	-0.18182611
1	0x3e41a90f	0.18912147
2	0xbd1b36c2	-0.037894018
3	0x3e489ad9	0.1959032
4	0x3e03c2a3	0.12867217
5	0xbe6a04aa	-0.22853342
6	0xbdf0622c	-0.11737475
7	0xbce843de	-0.028352674
8	0xbe189f23	-0.14904456
9	0xbe1362fa	-0.14393225
10	0xbdd6940f	-0.10477459
11	0xbe1df31c	-0.1542477
12	0xbbe809c4	-0.0070812423
13	0xbdeba05e	-0.11505197
14	0xbde32aac	-0.110921234
15	0xbe655f5b	-0.22399656
16	0xbd8f200e	-0.06988536
17	0x3e6533fc	0.22383112
18	0x3d7f94ba	0.062397696
19	0x3e5008d2	0.20315865
20	0xbde4b4ad	-0.11167274
21	0x3d922a26	0.071369454
22	0xbe20966b	-0.1568238
23	0x3da878c9	0.08226163
24	0x3e5cb057	0.21551643
25	0xbde88c4c	-0.113548845
26	0x3dfa511e	0.12222503
27	0xbdd97af2	-0.10619153
28	0xbe1252be	-0.14289376
29	0x3d839293	0.06424441
30	0xbdb8c104	-0.0902119
31	0xbdcc9ae3	-0.0999048
32	0xbe69c3e7	-0.22828637
33	0x3df3625c	0.11883995
34	0xbdb178d5	-0.08665625
35	0xbe0108f8	-0.12601078
36	0xbdd3cccd	-0.10341797
37	0xbd957239	-0.07297177
38	0x3d825521	0.06363893
39	0x3e10aee5	0.14129217
40	0x3dcaf86b	0.09910663
41	0x3e042572	0.12904909
42	0xbe365d18	-0.1780895
43	0x3cb8dcf8	0.022566304
44	0x3d955f0c	0.072935194
45	0x3dbc6c2e	0.09200321
46	0x3cbfa230	0.023392767
47	0x3d50b3a9	0.050952587
48	0x3db1f9b6	0.08690207
49	0x3dc72a9d	0.09724925
50	0x3e410efa	0.1885337
51	0xbdffcd46	-0.12490325
52	0xbdb3263b	-0.08747526
53	0x3c7ebd73	0.015548098
54	0xbdff50df	-0.12466597
55	0xbe32cfda	-0.17462102
56	0x3e01f258	0.12690103
57	0xbe1ff004	-0.15618902
58	0x3df87e92	0.12133516
59	0x3dada035	0.08477823
60	0xbe197a19	-0.14987983
61	0x3e40ef11	0.18841197
62	0x3e144c07	0.14482127
63	0xbe0d35b3	-0.13790016
64	0x3ce29cf3	0.02766273
65	0x3e14c8e3	0.14529757
66	0xbe1cb8a0	-0.15304804
67	0xbe5b3c17	-0.21409641
68	0xbe17170c	-0.14754885
69	0x3e1e8e51	0.15483977
70	0xb9c21104	-0.0003701524
71	0x3e4ce9fd	0.20011134
72	0xbe0fd20b	-0.14044969
73	0xbdb7a088	-0.08966166
74	0xbe3a7be4	-0.18211323
75	0x3e6e0d2f	0.23247217
76	0xbe2c5d01	-0.16832353
77	0x3e4c2acb	0.19938199
78	0xbe8291ef	-0.25501963
79	0x3be4ab2e	0.006978414
80	0xbe0f4b69	-0.1399361
81	0x3bd121ec	0.0063822176
82	0xbc6819f6	-0.014166346
83	0x3e6f194c	0.23349494
84	0xbe12f545	-0.14351375
85	0x3e49b733	0.19698791
86	0xbe0a0c87	-0.13481341
87	0x3e0aee41	0.13567449
88	0x3e2d5236	0.16925892
89	0xbdc43a85	-0.09581474
90	0xbccd7e59	-0.025084661
91	0x3ddca9f9	0.10774607
92	0x39909b98	0.00027581747
93	0x3db12807	0.08650213
94	0x3de01fea	0.10943587
95	0xbe873091	-0.2640424
96	0xbe3f5f29	-0.18688644
97	0xbc4675b2	-0.012113022
98	0xbd9885d2	-0.07447399
99	0xbe451605	-0.19246681
100	0xbc680128	-0.014160432
101	0x3e409452	0.1880658
102	0xbd704002	-0.058654793
103	0x3d455672	0.048178144
104	0xbe86fbb5	-0.26363912
105	0x3e344f59	0.17608394
106	0xbd3624dd	-0.04446875
107	0x3dfbd9d8	0.1229741
108	0xbe1cf106	-0.15326318
109	0x3bf386f8	0.007431861
110	0xbe4ea60c	-0.2018053
111	0xbb08d029	-0.0020876026
112	0x3dea326d	0.11435399
113	0x3e49b26a	0.19696966
114	0xbe5d648d	-0.21620388
115	0x3d5a97fb	0.053367596
116	0x3c306426	0.010766065
117	0x3d1ba542	0.0379994
118	0xbe83542f	-0.25650164
119	0xbd900d89	-0.070338316
120	0xbe31606e	-0.17321941
121	0xbde0367c	-0.10947892
122	0x3dba8271	0.09106911
123	0xbe6bf52b	-0.23042743
124	0x3e17fd93	0.14842825
125	0x3e8f0e7e	0.27940744
126	0x3dd38745	0.10328535
127	0x3dc686dc	0.09693691
128	0x3e1c09b4	0.15238076
129	0xbe1b0400	-0.15138245
130	0xbeb0a40d	-0.3450016
131	0x3e58d192	0.21173695
132	0xbe3b4169	-0.1828667
133	0xbecf0197	-0.404309
134	0xbe1fc40d	-0.15602131
135	0xbe56fc60	-0.20994711
136	0x3def726d	0.11691747
137	0xbcddff90	-0.0270994
138	0x3dfe10c3	0.12405541
139	0xbda69f94	-0.08135906
140	0xbe7439cf	-0.23850177
141	0xbda6ccd1	-0.081445344
142	0x3c92ae19	0.017905282
143	0x3e2f605e	0.17126605
144	0x3e39bd6a	0.18138662
145	0x3e41f5c5	0.1894141
146	0xbd14acd6	-0.03629764
147	0x3e4b6d70	0.19865966
148	0x3d7f98a7	0.06240144
149	0xbe0306c9	-0.12795557
150	0x3e5516da	0.20809498
151	0x3dd61467	0.1045311
152	0x3e35e66f	0.17763685
153	0x3e35d10a	0.17755523
154	0x3e32d6a6	0.17464694
155	0xbdf8246f	-0.12116324
156	0x3e10880f	0.14114402
157	0xbd8b2c58	-0.06795567
158	0x3e0013f6	0.12507614
159	0xbe3ad039	-0.18243493
160	0x3e23da61	0.16001274
161	0x3c75624a	0.014977047
162	0xbb16bf6c	-0.002300228
163	0x3e644c80	0.22294807
164	0xbdc35a76	-0.095387384
165	0x3d44f92c	0.04808919
166	0xbd06df34	-0.032927707
167	0x3cad4343	0.021150237
168	0xbea79719	-0.32732466
169	0x3d36dec0	0.044646025
170	0x3d73fce7	0.05956736
171	0xbe03e4fa	-0.12880316
172	0xbda19147	-0.078890376
173	0xbd91ef86	-0.071257636
174	0x3d277ef6	0.040892564
175	0x3d8f3fd4	0.06994596
176	0x3e29f260	0.16596365
177	0xbe1f382f	-0.15548776
178	0xbe0b9ad0	-0.13633275
179	0xbc2a8ecd	-0.010410023
180	0xbe0036a7	-0.12520848
181	0x3de84b0e	0.113424405
182	0xbd032cd0	-0.03202516
183	0x3d93cc99	0.07216758
184	0xbe6a40ec	-0.22876328
185	0xbdfea739	-0.12434239
186	0xbdd71aa3	-0.105031274
187	0xbd4ade21	-0.049528245
188	0x3d33ea1c	0.043924436
189	0xbd6161d1	-0.055024926
190	0x3db6452f	0.088999145
191	0x3d449876	0.04799696
192	0xbe3d70e6	-0.18500099
193	0xbe6a012f	-0.22852014
194	0x3e324d09	0.17412199
195	0x3e225274	0.15851766
196	0x3cd39253	0.025826609
197	0xbd251546	-0.04030349
198	0xbe3da908	-0.18521512
199	0xbe262a92	-0.16227177
200	0x3df75f49	0.12078721
201	0x3d7fa22c	0.06241052
202	0x3e135e33	0.14391403
203	0x3dfba2d7	0.122869186
204	0x3d9559b7	0.072925024
205	0x3e1f4dc8	0.15557015
206	0xbd8d7020	-0.06906152
207	0xbddbb1fd	-0.10727308
208	0x3e901837	0.28143474
209	0x3b4583d4	0.003013839
210	0x3e2f9843	0.17147927
211	0x3e4927c5	0.19644077
212	0x3d8eeca3	0.069787286
213	0x3da923d4	0.08258787
214	0x3d84c2f4	0.06482497
215	0x3d8e6d80	0.06954479
216	0x3e19688f	0.14981292
217	0x3dc32083	0.095276855
218	0x3dffbb71	0.124869235
219	0xbed9e65a	-0.42558557
220	0x3daabbc0	0.08336592
221	0xbcb0429f	-0.021516142
222	0xbe3ba0c1	-0.18323041
223	0x3d1132b7	0.035448756
224	0xbd867075	-0.06564418
225	0xbdb8cbfb	-0.09023281
226	0xbddabf3a	-0.10681005
227	0xbdcfec9a	-0.1015255
228	0x3d987ef5	0.0744609
229	0x3dc79271	0.09744728
230	0x3cce77aa	0.025203545
231	0x3e0592c3	0.13044266
232	0x3cdf723c	0.02727615
233	0xbcffd942	-0.031231526
234	0xbe0f9085	-0.14019974
235	0xbd89f2fc	-0.06735799
236	0xbd92e394	-0.07172313
237	0x3e459a2e	0.19297096
238	0x3e48b353	0.19599657
239	0xbb41fa67	-0.0029598714
240	0x3e1ff154	0.15619403
241	0xbe3b7c73	-0.18309192
242	0xbdcd519b	-0.10025331
243	0xbe5acc3c	-0.21366972
244	0xbe19b847	-0.15011702
245	0x3e04111a	0.12897149
246	0xbddf1edf	-0.1089456
247	0xbde988d3	-0.1140305
248	0x3d904041	0.070435055
249	0xbd315860	-0.04329717
250	0xbd98a9ae	-0.07454239
251	0x3dec2fd1	0.11532558
252	0x3d9cba45	0.076527156
253	0x3dca8c34	0.09890023
254	0xbd851baa	-0.06499417
255	0xbe2b3523	-0.16719489

fc4.bias f4 [80]
0	0x3d07b99e	0.033136003
1	0x3ccdbafb	0.025113573
2	0x3c1bb823	0.009504351
3	0x3d03e2be	0.03219866
4	0xbd2ffab4	-0.0429637
5	0x3d138a5b	0.036020618
6	0xbd3f6de7	-0.04673567
7	0x3ceb366f	0.02871248
8	0xbd3bb4e7	-0.04582682
9	0x3c1de567	0.009637213
10	0xbd777d8f	-0.060422476
11	0x3c1a06c0	0.009401023
12	0x3ca5ac4f	0.020223765
13	0x3a50b505	0.00079615443
14	0x3a2b547a	0.00065357203
15	0xbd5a93c0	-0.05336356
16	0xbd440ad4	-0.04786189
17	0xbba81af9	-0.0051301685
18	0xbd4d2be4	-0.050090685
19	0x3c6840e2	0.0141756255
20	0xbd419430	-0.047260463
21	0x3d0ad3d9	0.03389344
22	0xbaacf846	-0.001319655
23	0xbd4964f9	-0.04916856
24	0xbc0bc080	-0.008529782
25	0xbd392122	-0.045197614
26	0xbd619cfd	-0.055081356
27	0xbd358cb4	-0.044323638
28	0xbd3d3da8	-0.046201378
29	0x3cabf7bb	0.02099215
30	0xbd3c8f31	-0.046034995
31	0xbd3378ba	-0.043816306
32	0xbd5a8814	-0.05335243
33	0xbd7ee677	-0.062231507
34	0xbd670fb4	-0.05641146
35	0xbd47d5c4	-0.048787847
36	0xbd5e6856	-0.05429872
37	0xbd646a63	-0.05576552
38	0xbd36d8b6	-0.044640265
39	0xbd721436	-0.059101306
40	0xbd6dc57e	-0.05804967
41	0xbd3c067c	-0.04590462
42	0x3c07d865	0.008291339
43	0x3c9d064f	0.019168047
44	0xbd566730	-0.0523445
45	0xbd431733	-0.047629546
46	0xbd6b9705	-0.05751707
47	0x3be77f9f	0.007064774
48	0xbd694a70	-0.056955755
49	0xbd3e1591	-0.046407286
50	0xbd2ffc90	-0.04296547
51	0xbd481d67	-0.048856165
52	0xbd65a7af	-0.05606812
53	0x3cf41f2f	0.029800026
54	0x3ce3a931	0.027790638
55	0xbd3da1b9	-0.04629681
56	0x3c439d97	0.011939428
57	0xbd2e6532	-0.042576976
58	0xbd480f84	-0.04884292
59	0xbd28ef57	-0.041243877
60	0xbd326adf	-0.04355895
61	0xbd34abff	-0.04410934
62	0x3c395aea	0.0113131795
63	0x3c52179d	0.012823013
64	0xbd393246	-0.04521396
65	0x3d0754f8	0.033040017
66	0xbd418792	-0.04724843
67	0xbd3b76f7	-0.04576775
68	0xbd5ed0b7	-0.054398265
69	0xbd4a36fd	-0.049368847
70	0xbd4d2bfc	-0.050090775
71	0xbd2c4ac0	-0.042063475
72	0xbd397f60	-0.04528749
73	0xbd456007	-0.048187282
74	0xbd51623c	-0.051119074
75	0x3ca2c837	0.01987086
76	0xbd43a958	-0.04776892
77	0xbd4ab38e	-0.049487643
78	0x3ac36fac	0.00149106
79	0x3ca21368	0.019784644

exp_avg f4 [64, 28]
0	0xb8e6cd02	-0.0001100544
1	0xbb65e591	-0.003507946
2	0xbbdd0fcb	-0.0067462674
3	0x00000000	0.0
4	0x00000000	0.0
5	0x3aa8b940	0.0012872592
6	0x3ac1fbdb	0.001479979
7	0x3aa9574e	0.0012919696
8	0xba229a79	-0.0006202828
9	0x00000000	0.0
10	0x3a7297e7	0.00092542026
11	0xbc49c024	-0.012313876
12	0xbb1e408f	-0.0024147367
13	0x00000000	0.0
14	0x00000000	0.0
15	0xbc304f7c	-0.010761138
16	0xbbc55bb8	-0.0060228966
17	0xba904dec	-0.0011009551
18	0xbbd17701	-0.00639236
19	0x39aeb58a	0.00033323123
20	0x3a8bd520	0.0010668375
21	0xbaab9f3c	-0.001309372
22	0xba3269b7	-0.0006805914
23	0xb9da59e4	-0.00041647174
24	0x39d26303	0.0004012809
25	0xb9aeb820	-0.0003332505
26	0xbb964407	-0.004585746
27	0x3aa0951d	0.001225147
28	0x3c615767	0.0137537485
29	0xbc72e21f	-0.014824419
30	0x3af06b90	0.0018342603
31	0x00000000	0.0
32	0x00000000	0.0
33	0xbb80c667	-0.0039299014
34	0x3b531aab	0.003221194
35	0x346c2055	2.1990975e-07
36	0x00000000	0.0
37	0x3b2a23a7	0.0025961192
38	0xb8e57bcd	-0.000109426306
39	0x39eeb83b	0.0004553216
40	0xbac0aaf7	-0.0014699389
41	0x00000000	0.0
42	0x00000000	0.0
43	0x3bf8a545	0.007588061
44	0xbb60c5ea	-0.0034297653
45	0x3b1e9b26	0.0024201362
46	0x3b4b1205	0.0030986082
47	0x3a6f5bf6	0.000913083
48	0x00000000	0.0
49	0x00000000	0.0
50	0x00000000	0.0
51	0xbae3eb72	-0.0017388894
52	0x3a58ec7f	0.0008274987
53	0x3ba61abb	0.0050691045
54	0x3be1a286	0.0068858294
55	0x3b2c29f6	0.0026270128
56	0x3ae0310b	0.001710446
57	0x3930c391	0.00016857522
58	0x3930d962	0.0001686565
59	0x00000000	0.0
60	0x00000000	0.0
61	0x3a6686db	0.0008793899
62	0x3a42ca6c	0.0007430676
63	0x315ef387	3.244368e-09
64	0x00000000	0.0
65	0xbba03ed8	-0.004890304
66	0xba5cc25f	-0.00084212975
67	0xb9ef0b80	-0.000455942
68	0x3bd8b6d7	0.006613593
69	0x00000000	0.0
70	0x00000000	0.0
71	0x3b52e189	0.0032177886
72	0xba3d79a0	-0.00072279014
73	0xba5dd0c5	-0.000846159
74	0x3bd07375	0.00636142
75	0xbb41ba82	-0.002956063
76	0x3b7f4479	0.0038950725
77	0xba2ec337	-0.00066666625
78	0x00000000	0.0
79	0x3a613c99	0.00085920986
80	0xb99b92e5	-0.0002967335
81	0xbbc2f17b	-0.005949197
82	0xbb86128b	-0.004091566
83	0x3a661ca8	0.0008778074
84	0x3b06b950	0.0020557232
85	0x3b80adad	0.0039269538
86	0x3c119695	0.008885999
87	0x00000000	0.0
88	0x00000000	0.0
89	0x3a8a41c7	0.0010548168
90	0x3b9adbeb	0.0047259233
91	0x3b2d2621	0.0026420432
92	0x3ab150dd	0.0013528127
93	0xb99c2bb3	-0.00029787197
94	0xbb1ab269	-0.0023604876
95	0x3bf021af	0.007328234
96	0x39dde1a7	0.0004232053
97	0x00000000	0.0
98	0x00000000	0.0
99	0x3c76ee20	0.015071422
100	0x3c4ccf39	0.012500578
101	0x3bb6a0b1	0.005573355
102	0x3c35cae9	0.011095741
103	0x3bf05c50	0.0073352233
104	0x37fd91fb	3.0227928e-05
105	0x3b322211	0.002718095
106	0x3a90849f	0.0011025852
107	0xb933726a	-0.00017113393
108	0x3a7e6872	0.00097048946
109	0x3b4f478d	0.003162834
110	0x3c2e2fdb	0.010631527
111	0xbb3891bb	-0.0028163034
112	0x3ae0ca10	0.0017150063
113	0x3b2897cb	0.0025725241
114	0x3b25a544	0.0025275508
115	0x00000000	0.0
116	0x00000000	0.0
117	0xbb0b9f8d	-0.0021304816
118	0x3bb5bb08	0.0055459775
119	0x3aa2a5b3	0.0012409001
120	0xb9aa2a7c	-0.0003245658
121	0x3accdfb8	0.0015630638
122	0xb8a65898	-7.931999e-05
123	0x3b4b4931	0.0031018967
124	0xbb09c843	-0.0021023906
125	0x00000000	0.0
126	0x00000000	0.0
127	0x3bef97e6	0.007311809
128	0x3b923773	0.0044621765
129	0x3b85b65d	0.0040805773
130	0x3b9529e2	0.004552112
131	0x3ba9a3a1	0.005176977
132	0xbba8b8f1	-0.005149
133	0xba1afd14	-0.00059123454
134	0x3b14a7e0	0.002268307
135	0x36679010	3.4505538e-06
136	0xbaa6723f	-0.0012698843
137	0x3b876119	0.004131448
138	0x3c0215c4	0.00793976
139	0x39cd5e8a	0.00039171084
140	0xbb67888f	-0.0035329198
141	0x3ba295bc	0.0049616974
142	0x3c091017	0.0083656525
143	0x00000000	0.0
144	0x00000000	0.0
145	0x3ae4d408	0.001745821
146	0xbaaf1925	-0.0013358934
147	0xbab7ba91	-0.0014017393
148	0x00000000	0.0
149	0xbafbc754	-0.0019209185
150	0xb95778bc	-0.00020548975
151	0x3c258155	0.010101636
152	0x3b383900	0.0028110147
153	0x00000000	0.0
154	0x00000000	0.0
155	0x3c1a1b4a	0.00940592
156	0x3c0a6243	0.008446279
157	0x3be33ee6	0.0069349883
158	0x3c1d6c1b	0.009608294
159	0xb9cdbe56	-0.00039242458
160	0xba1a4106	-0.0005884323
161	0x3a0117c3	0.00049245
162	0x3195ea85	4.3631325e-09
163	0x3ae15b89	0.0017193417
164	0xbac42904	-0.0014965837
165	0xbad61785	-0.0016333914
166	0x3b2c2f9c	0.0026273495
167	0xbb02fb2c	-0.0019986136
168	0xbb8553ef	-0.0040688436
169	0xbb8a1b46	-0.004214677
170	0xb9f70062	-0.00047111796
171	0x00000000	0.0
172	0x00000000	0.0
173	0x3b8fcdea	0.0043885605
174	0xba3b1a71	-0.0007137424
175	0x3a8de88c	0.0010826751
176	0x3a5df5a2	0.0008467083
177	0xba423af6	-0.00074092986
178	0xb7cf4588	-2.4708701e-05
179	0xbc5ebc81	-0.0135947475
180	0x35cf97e0	1.5466903e-06
181	0x00000000	0.0
182	0x00000000	0.0
183	0xbbf16376	-0.007366593
184	0xbc3895c1	-0.011266173
185	0xbb9713ea	-0.0046105282
186	0xbb771193	-0.0037699684
187	0x00000000	0.0
188	0x3bddecc4	0.0067726094
189	0x3985cada	0.00025518873
190	0xbba3423c	-0.004982261
191	0x398bcd7a	0.00026665238
192	0x00000000	0.0
193	0x396a4c34	0.00022344367
194	0xbb18541f	-0.00232435
195	0xbbb27668	-0.005446244
196	0x396749fd	0.0002205744
197	0x3b7de65f	0.0038742048
198	0x3b47ed73	0.003050652
199	0x00000000	0.0
200	0x00000000	0.0
201	0xbafc132c	-0.0019231788
202	0x3a6b9469	0.00089866534
203	0x3b383d75	0.0028112803
204	0xb9ee24cf	-0.00045422322
205	0xbb080c67	-0.0020759345
206	0x3a8ce4a7	0.0010749296
207	0x3bd3a1ab	0.0064584813
208	0x39ba5642	0.00035540952
209	0x00000000	0.0
210	0x00000000	0.0
211	0x3bdeea5b	0.0068028397
212	0x3b35e15d	0.0027752735
213	0xba13d732	-0.00056396716
214	0x3a8bbd70	0.0010661315
215	0x3ae82172	0.0017710163
216	0xbb956a17	-0.004559766
217	0x3b6e349e	0.003634728
218	0x3a7a910a	0.00095583557
219	0x3ad41ffc	0.0016183848
220	0xb88d69cb	-6.7431094e-05
221	0x39ae805a	0.00033283496
222	0x3b6c0f9a	0.0036020041
223	0xbb9d9f47	-0.004810247
224	0xbace3ed3	-0.0015735276
225	0xbb82a609	-0.003987078
226	0xbaa1b006	-0.0012335784
227	0x00000000	0.0
228	0x00000000	0.0
229	0x3ac369c9	0.0014908846
230	0x3a3f1fd1	0.0007290813
231	0x3659fbe4	3.248214e-06
232	0xbaadd41c	-0.0013262066
233	0xbb531d43	-0.0032213486
234	0xb814be64	-3.5463265e-05
235	0xbb978a35	-0.00462463
236	0x39477e11	0.00019025082
237	0x00000000	0.0
238	0x00000000	0.0
239	0xbbdea1bf	-0.006794184
240	0x3b89e661	0.0042083715
241	0xbbb1bb1a	-0.0054239156
242	0x3ba34091	0.004982062
243	0xbb45e423	-0.0030195795
244	0x3b753fba	0.0037422017
245	0x3a10075c	0.00054942607
246	0xba187ca8	-0.0005816915
247	0x2d0d079f	8.016614e-12
248	0xb9da08b8	-0.00041586696
249	0xbb28e70d	-0.0025772483
250	0xbbb897a7	-0.0056333127
251	0xbba284f2	-0.004959696
252	0xbb66834a	-0.003517347
253	0xbacba1b1	-0.0015535859
254	0x3ba73158	0.005102318
255	0x00000000	0.0

exp_avg_sq f4 [64, 28]
0	0x3893bc06	7.044528e-05
1	0x38a203f7	7.7255005e-05
2	0x39676d8c	0.00022070686
3	0x00000000	0.0
4	0x00000000	0.0
5	0x3806f542	3.2176504e-05
6	0x3857926d	5.1396364e-05
7	0x381938f3	3.653108e-05
8	0x37cee304	2.4662826e-05
9	0x00000000	0.0
10	0x36351d80	2.6988273e-06
11	0x39039b2e	0.00012550942
12	0x383504d1	4.315825e-05
13	0x00000000	0.0
14	0x00000000	0.0
15	0x39ad6765	0.00033074166
16	0x396362b3	0.00021685175
17	0x37bda7fb	2.2608778e-05
18	0x398e951e	0.00027195452
19	0x379f3d62	1.898286e-05
20	0x38f8dd4f	0.000118667835
21	0x373aae2e	1.1127018e-05
22	0x3813f273	3.527333e-05
23	0x3755eca6	1.2750888e-05
24	0x3778183a	1.4787593e-05
25	0x378cf2ef	1.6802425e-05
26	0x390eb0e5	0.00013608074
27	0x372f3bc5	1.0444729e-05
28	0x3943fa35	0.00018689859
29	0x396cae25	0.00022571588
30	0x362f85cc	2.6154912e-06
31	0x00000000	0.0
32	0x00000000	0.0
33	0x38959211	7.132081e-05
34	0x37cb7198	2.4252382e-05
35	0x351308e9	5.4774733e-07
36	0x00000000	0.0
37	0x387ca9ec	6.0239734e-05
38	0x33df17d6	1.03885824e-07
39	0x3951c529	0.00020005241
40	0x3801cab4	3.094478e-05
41	0x00000000	0.0
42	0x00000000	0.0
43	0x39c6f336	0.0003794671
44	0x39d42a1a	0.0004046716
45	0x39202053	0.00015270831
46	0x3985e6e2	0.00025539758
47	0x3788ff45	1.6331333e-05
48	0x00000000	0.0
49	0x00000000	0.0
50	0x00000000	0.0
51	0x379a62b4	1.8404193e-05
52	0x3788e999	1.632124e-05
53	0x381c1aba	3.721819e-05
54	0x39522098	0.00020039303
55	0x36f86b59	7.403473e-06
56	0x398b7960	0.00026602577
57	0x3997f024	0.00028979883
58	0x35eacf16	1.7494629e-06
59	0x00000000	0.0
60	0x00000000	0.0
61	0x38a17476	7.698771e-05
62	0x38060512	3.195281e-05
63	0x35a76a36	1.2473381e-06
64	0x00000000	0.0
65	0x3846be1b	4.7383928e-05
66	0x376e6473	1.4209293e-05
67	0x39921114	0.00027860014
68	0x38b6a645	8.7094064e-05
69	0x00000000	0.0
70	0x00000000	0.0
71	0x3a1911df	0.000583915
72	0x39e4b703	0.00043623903
73	0x38f14c02	0.00011505933
74	0x39beacbc	0.0003636832
75	0x38a254f6	7.740587e-05
76	0x37122565	8.710985e-06
77	0x36a1d9b9	4.82352e-06
78	0x00000000	0.0
79	0x380bc044	3.3319244e-05
80	0x3823232e	3.8894992e-05
81	0x387dc769	6.0505616e-05
82	0x3995fe2a	0.00028608862
83	0x3782185e	1.5508554e-05
84	0x3917b774	0.00014468824
85	0x39868608	0.00025658333
86	0x38c7bc5d	9.524145e-05
87	0x00000000	0.0
88	0x00000000	0.0
89	0x393ae3ea	0.00017823247
90	0x3831692f	4.229805e-05
91	0x37aebad8	2.0829422e-05
92	0x36ac3ebb	5.1333022e-06
93	0x378e050e	1.6930073e-05
94	0x378dc63e	1.6900824e-05
95	0x390f625d	0.00013674186
96	0x3886f4bb	6.4352025e-05
97	0x00000000	0.0
98	0x00000000	0.0
99	0x39f3c713	0.00046496894
100	0x39a31f83	0.0003111326
101	0x38c9399d	9.595158e-05
102	0x39ae84f2	0.00033286918
103	0x3900403d	0.00012230962
104	0x38d651b7	0.00010219536
105	0x377d0713	1.5081622e-05
106	0x37f25cf7	2.8891938e-05
107	0x371761fd	9.023116e-06
108	0x38934b6f	7.023557e-05
109	0x384c7ac6	4.875173e-05
110	0x3996abf8	0.00028738356
111	0x37c84c76	2.3877463e-05
112	0x39138e89	0.00014072111
113	0x38fc7c34	0.00012039431
114	0x388e2a12	6.778924e-05
115	0x00000000	0.0
116	0x00000000	0.0
117	0x389157cf	6.9304944e-05
118	0x381216d2	3.4830366e-05
119	0x37b96ace	2.2103453e-05
120	0x369b737e	4.632805e-06
121	0x37ba69ac	2.2222135e-05
122	0x356d4624	8.839145e-07
123	0x38f82784	0.00011832922
124	0x37f1e1b8	2.8834547e-05
125	0x00000000	0.0
126	0x00000000	0.0
127	0x399e0a8f	0.00030143975
128	0x3969af19	0.0002228584
129	0x3885115d	6.3451684e-05
130	0x39596dcc	0.00020735635
131	0x3841846c	4.6138113e-05
132	0x38ac9128	8.2286366e-05
133	0x36438bc9	2.913863e-06
134	0x37c14ac6	2.3042212e-05
135	0x371c61de	9.321111e-06
136	0x37a60f1d	1.979578e-05
137	0x37c5b0ad	2.3566501e-05
138	0x391cbde9	0.00014948066
139	0x37367fd7	1.087781e-05
140	0x38d50a66	0.00010158568
141	0x399040b9	0.00027514042
142	0x38befec1	9.1073576e-05
143	0x00000000	0.0
144	0x00000000	0.0
145	0x39219cd6	0.00015412582
146	0x37a4c35f	1.96413e-05
147	0x37719b40	1.4400866e-05
148	0x00000000	0.0
149	0x36c59669	5.8885676e-06
150	0x3736c44c	1.0893749e-05
151	0x38fc437c	0.00012028866
152	0x38de0443	0.00010586579
153	0x00000000	0.0
154	0x00000000	0.0
155	0x3a06555a	0.0005124413
156	0x39cf3275	0.0003951971
157	0x38d648e8	0.00010217895
158	0x39c4db33	0.0003754735
159	0x38d0e6fe	9.9612385e-05
160	0x387def76	6.0542916e-05
161	0x3781c777	1.5470881e-05
162	0x35107a89	5.382249e-07
163	0x379a3d09	1.8386652e-05
164	0x389cd870	7.478974e-05
165	0x387f38a4	6.084949e-05
166	0x39a7e747	0.00032025037
167	0x37b19034	2.1167194e-05
168	0x392d273b	0.0001651318
169	0x3834b6a2	4.3085434e-05
170	0x395b507c	0.0002091545
171	0x00000000	0.0
172	0x00000000	0.0
173	0x37a2bbc2	1.9399336e-05
174	0x38962bce	7.1607166e-05
175	0x38002b53	3.0557927e-05
176	0x37d5eefc	2.5502864e-05
177	0x3712b051	8.74333e-06
178	0x340fa564	1.3378082e-07
179	0x392ca79a	0.00016465635
180	0x386015da	5.3426113e-05
181	0x00000000	0.0
182	0x00000000	0.0
183	0x39e187a0	0.00043016393
184	0x399fa6cb	0.00030451114
185	0x387e16f0	6.057968e-05
186	0x39c925e5	0.0003836594
187	0x00000000	0.0
188	0x3950f0a1	0.00019926067
189	0x370594d4	7.9620695e-06
190	0x382124d3	3.8419686e-05
191	0x37af3ddd	2.0890433e-05
192	0x00000000	0.0
193	0x37aeda03	2.0843936e-05
194	0x393d0502	0.0001802631
195	0x37aec771	2.0835289e-05
196	0x384662a6	4.7298752e-05
197	0x39501ca0	0.0001984709
198	0x38d333d7	0.0001007092
199	0x00000000	0.0
200	0x00000000	0.0
201	0x38ff2bdc	0.00012167517
202	0x37c0b552	2.2972617e-05
203	0x378bf302	1.668325e-05
204	0x374b44bf	1.2115749e-05
205	0x36695cc2	3.4773698e-06
206	0x3737555b	1.0927523e-05
207	0x390b10f8	0.00013262394
208	0x37f2a637	2.8926048e-05
209	0x00000000	0.0
210	0x00000000	0.0
211	0x39bc9b63	0.00035973926
212	0x3965d2a3	0.0002191761
213	0x385ff086	5.3391348e-05
214	0x397216a3	0.00023087351
215	0x38d6c9bf	0.00010241893
216	0x38a5fe45	7.9151745e-05
217	0x383057ca	4.204343e-05
218	0x37c14213	2.3038161e-05
219	0x36912462	4.3255723e-06
220	0x3884d8ad	6.3346095e-05
221	0x38334478	4.2740692e-05
222	0x39633dc3	0.00021671415
223	0x37b9f39a	2.2167154e-05
224	0x37eee6bc	2.8479255e-05
225	0x3944566e	0.00018724214
226	0x38a1dcc1	7.718197e-05
227	0x00000000	0.0
228	0x00000000	0.0
229	0x38977a27	7.222994e-05
230	0x3858cd8e	5.168985e-05
231	0x33b10193	8.242491e-08
232	0x371f65f4	9.500876e-06
233	0x37647110	1.3616183e-05
234	0x37bc6e91	2.2462833e-05
235	0x38efee42	0.00011440787
236	0x360a784b	2.0633622e-06
237	0x00000000	0.0
238	0x00000000	0.0
239	0x399fb4d1	0.00030461562
240	0x391baa5d	0.00014845417
241	0x384024b8	4.5810564e-05
242	0x3910b8dd	0.00013801777
243	0x3888b703	6.519074e-05
244	0x38b6e749	8.7215165e-05
245	0x379988cd	1.8302724e-05
246	0x37290c7a	1.007609e-05
247	0x3329dfdf	3.955199e-08
248	0x380df4eb	3.3845117e-05
249	0x3814852c	3.5409976e-05
250	0x3941524c	0.00018436572
251	0x376aa639	1.3986189e-05
252	0x389c2bd1	7.446821e-05
253	0x38f90411	0.00011874003
254	0x391bef63	0.0001487113
255	0x00000000	0.0
