checkpoints/model_selector.pth (torch, 294285 bytes, 24 tensors)

fc1.weight f4 [64, 28]
-0.23128808 -0.053816464 0.23142754 0.0070611425 -0.030193245 -0.08864729 -0.016976187 -0.0013245161
-0.10655889 -0.18243578 -0.03626229 0.2734042 0.21320282 0.012390487 0.11059992 0.09154893
-0.11122459 0.07105709 0.1464207 -0.03236719 0.19499305 0.12367187 -0.09471065 0.0838293
0.101067655 0.22144446 -0.14125165 -0.21103667 -0.100052685 0.03282283 -0.20146275 -0.06311926
-0.18680911 -0.1932957 0.077514715 0.124695115 0.034408517 0.17715289 -0.061201885 0.04429929
0.1883426 0.2115379 0.073111854 -0.21803392 0.07303553 0.18402815 0.08699318 -0.2515332
-0.083461754 -0.13083954 -0.22984636 -0.2124702 0.16507082 -0.16360728 -0.14266425 -0.09742131
-0.03432886 0.19832015 -0.25159338 -0.11419881 -0.041639168 0.11148429 -0.1436621 -0.069431655
-0.13731797 -0.038532376 0.12110684 -0.07583278 -0.04463882 -0.1672853 0.071334116 -0.12052004
0.10204002 -0.23806341 0.12999956 0.13511994 -0.20054819 0.0005562791 -0.15321921 -0.12490183
0.15238622 -0.09863248 0.18918286 0.17371921 0.24867243 -0.12009209 -0.24015163 0.16530998
-0.06009 -0.096929945 -0.13827989 0.22890636 -0.19870397 0.06596063 0.04687293 -0.098248675
0.14529891 0.14775376 0.17179935 0.0644166 0.061575796 0.055033088 -0.07708092 -0.20453656
0.008343771 0.023122234 0.1408373 0.042625926 0.006653768 -0.0949984 0.20910409 0.21336915
0.27899924 -0.015876124 -0.0964385 -0.20675112 -0.25131562 -0.20574409 -0.092477486 0.21941692
-0.23541042 -0.07694076 0.10951543 0.14633887 0.046097122 -0.057380274 0.012139542 -0.1344999
0.15521315 0.15242305 0.06749172 0.16043574 0.18225919 -0.23921458 -0.0987562 -0.18842754
0.081217796 -0.21497779 0.08504836 -0.18230093 0.16846582 -0.17081878 -0.23599708 -0.10317011
0.08442108 -0.09839835 0.112038046 0.008156158 -0.13890176 0.014775587 0.14350453 -0.12839395
0.23265336 0.07096587 0.1327492 -0.022145271 0.21770823 -0.16637166 -0.0852393 0.17159915
-0.13728769 0.23224895 -0.0925808 -0.23202926 0.26283595 0.23162164 0.12995754 -0.19666238
0.06544409 -0.060657952 0.27446255 0.059278842 -0.020159528 -0.2628112 -0.07760358 0.21892096
-0.20312095 0.007922724 -0.1982839 0.0071840873 -0.03934386 -0.03378714 -0.009215494 -0.044752643
-0.07387469 0.12745263 0.05961677 -0.12716024 0.1566648 0.27556512 0.15036608 0.13253497
-0.045811817 0.20413285 -0.072697885 0.15782209 0.2602186 -0.04096022 -0.10101415 0.07755378
-0.03467301 0.16707271 -0.115855515 0.18849869 0.20575084 0.14026704 0.005082201 -0.06365597
0.19872333 -0.042055357 -0.08747391 0.22238421 -0.03134346 0.1287129 0.1345244 -0.09152387
0.20650232 0.0032359827 0.15208675 -0.15491562 0.093851864 0.234367 -0.09037568 0.27168337
-0.1496993 0.100112595 0.10615588 0.0010384517 0.0895074 0.08575619 -0.0931507 -0.21420398
-0.15466127 -0.010460263 0.0128006525 -0.018895326 -0.008662637 -0.21641143 -0.2367699 -0.06592811
-0.2298241 0.1503706 -0.06419887 -0.10697876 0.05575172 0.062147748 0.13791728 0.010454262
0.08393109 0.085166484 0.24784109 0.0871411 0.13092291 0.040339816 0.118143335 -0.011986382
00000000: c8d6 6cbe a76e 5cbd 57fb 6c3e 2861 e73b
00000010: d357 f7bc b68c b5bd a511 8bbc 639b adba
00000020: 8c3b dabd 72d0 3abe c487 14bd a3fb 8b3e
00000030: d751 5a3e 7801 4b3c 3682 e23d 017e bb3d
00000040: b8c9 e3bd 6186 913d 4fef 153e 7593 04bd
00000050: 42ac 473e ad47 fd3d a8f7 c1bd b2ae ab3d
00000060: 8ffc ce3d 56c2 623e 46a4 10be ff19 58be
00000070: 6ce8 ccbd 3b71 063d 404c 4ebe ac44 81bd
00000080: e34a 3fbe 4fef 45be 09c0 9e3d 2760 ff3d
00000090: f2ef 0c3d 9167 353e d4ae 7abd 2c73 353d
000000a0: e2dc 403e 649d 583e abbb 953d 4944 5fbe
000000b0: a793 953d e071 3c3e 7b29 b23d f6c8 80be
000000c0: ffed aabd cdfa 05be d85c 6bbe ca91 59be
000000d0: 5308 293e ab88 27be 9416 12be d384 c7bd
000000e0: 6b9c 0cbd 7014 4b3e d9d0 80be 11e1 e9bd
000000f0: d58d 2abd e051 e43d 281c 13be 2f32 8ebd
00000100: 159d 0cbe 20d4 1dbd dd06 f83d 374e 9bbd
00000110: 32d7 36bd d64c 2bbe 9f17 923d 36d3 f6bd
00000120: 5cfa d03d e5c6 73be 9b1e 053e e25c 0a3e
00000130: 815c 4dbe 42d3 113a 7fe5 1cbe 88cc ffbd
00000140: 220b 1c3e d3ff c9bd 27b9 413e 73e3 313e
00000150: fca3 7e3e d7f2 f5bd 4fea 75be 0547 293e
00000160: ef20 76bd 3583 c6bd 3e99 0dbe 6e66 6a3e
00000170: 0e79 4bbe 5e16 873d d4fd 3f3d 9a36 c9bd
00000180: 3dc9 143e c34c 173e 2bec 2f3e daec 833d
00000190: e736 7c3d 606a 613d 9adc 9dbd 0872 51be
000001a0: 50b4 083c d76a bd3c a737 103e 8698 2e3d
000001b0: da07 da3b 858e c2bd 621f 563e 717d 5a3e
000001c0: fdd8 8e3e a50e 82bc 8c81 c5bd 91b6 53be
000001d0: 71ac 80be 94ae 52be d664 bdbd d4ae 603e
000001e0: 6e0f 71be 1e93 9dbd a049 e03d dbd9 153e
000001f0: 56d0 3c3d 9407 6bbd eee4 463c 57ba 09be
00000200: 32f0 1e3e ca14 1c3e 1939 8a3d 4449 243e
00000210: 27a2 3a3e abf4 74be b140 cabd 26f3 40be
00000220: 8455 a63d 2323 5cbe d62d ae3d 18ad 3abe
00000230: 4e82 2c3e 1eeb 2ebe 38a9 71be da4a d3bd
00000240: f6e4 ac3d 1385 c9bd 3474 e53d 68a1 053c
00000250: 433c 0ebe 4e15 723c daf2 123e b479 03be
00000260: af3c 6e3e 8e56 913d 68ef 073e 006a b5bc
00000270: e8ee 5e3e 555d 2abe f191 aebd b0b7 2f3e
00000280: 2595 0cbe abd2 6d3e 019b bdbd 1499 6dbe
00000290: 6f92 863e 392e 6d3e 9713 053e dd61 49be
000002a0: 8d07 863d 7974 78bd 5b86 8c3e 5fce 723d
000002b0: 9825 a5bc 318f 86be a0ee 9ebd d12c 603e
000002c0: f0fe 4fbe 50ce 013c ef0a 4bbe 7e68 eb3b
000002d0: 0727 21bd 6264 0abd 95fc 16bc 8c4e 37bd
000002e0: 9d4b 97bd f182 023e b730 743d 4b36 02be
000002f0: bd6c 203e df16 8d3e 91f9 193e 3fb7 073e
00000300: 2ca5 3bbd 3408 513e a1e2 94bd 1d9c 213e
00000310: 5f3b 853e e7c5 27bd 82e0 cebd 84d4 9e3d
00000320: 4905 0ebd 1c15 2b3e a845 edbd cd05 413e
00000330: 59b0 523e 2aa2 0f3e 9888 a63b 105e 82bd
00000340: 217e 4b3e 3d42 2cbd 8525 b3bd b0b8 633e
00000350: 0062 00bd 51cd 033e c4c0 093e de70 bbbd
00000360: 5875 533e c812 543b a1bc 1b3e 33a2 1ebe
00000370: 6835 c03d e7fd 6f3e e216 b9bd 151a 8b3e
00000380: c64a 19be d507 cd3d 4168 d93d a81c 883a
00000390: a84f b73d f1a0 af3d cbc5 bebd 4a58 5bbe
000003a0: 865f 1ebe 8661 2bbc d4b9 513c 5fca 9abc
000003b0: bced 0dbc f59a 5dbe cf73 72be 5105 87bd
000003c0: 0257 6bbe c0fa 193e b27a 83bd ae17 dbbd
000003d0: ea5b 643d a38e 7e3d 303a 0d3e 5a48 2b3c
000003e0: 10e4 ab3d c46b ae3d 0eca 7d3e 0877 b23d
000003f0: a810 063e 5d3b 253d 22f5 f13d 8862 44bc

fc1.bias f4 [64]
0.033159565 0.011266711 0.043874018 -0.005794836 0.030995995 0.027037352 0.02815002 0.028960261
0.027416429 0.03600943 0.028624402 -0.020795079 0.033869 0.012814498 -0.023553168 -0.017799564
0.010600225 0.010627306 -0.010141434 -0.018451044 0.004301174 0.035616312 0.027885854 0.004406607
-0.004192626 -0.017048772 0.041198842 0.037551105 0.018222919 0.005550746 0.035442144 0.028296525
0.031275805 0.028857654 0.035524886 0.032016125 0.045401264 0.039311882 0.028976781 0.0048281206
0.013714607 0.04055142 -0.006140703 0.04099384 -0.013583266 -0.0035435536 -0.020055655 0.026730824
-0.006247608 0.022853835 0.034497607 -0.0062778476 0.0073372405 0.041337725 0.035761982 0.0
-0.01494762 0.029762246 0.03056347 0.023395898 0.018811919 -0.010482397 0.048275705 -0.0065357247
00000000: 53d2 073d 0398 383c 3eb5 333d 9ce2 bdbb
00000010: 50eb fd3c 707d dd3c df9a e63c 123e ed3c
00000020: 6b98 e03c a07e 133d b97d ea3c 715a aabc
00000030: 38ba 0a3d e6f3 513c 93f2 c0bc 64d0 91bc
00000040: 91ac 2d3c 271e 2e3c 4228 26bc a526 97bc
00000050: ddf0 8c3b 69e2 113d e070 e43c 4c65 903b
00000060: 4c62 89bb dea9 8bbc 1ec0 283d 30cf 193d
00000070: 3b48 953c 08e3 b53b c82b 113d 1dce e73c
00000080: 0f1b 003d e366 ec3c 8b82 113d 5723 033d
00000090: adf6 393d 7f05 213d b760 ed3c 3635 9e3b
000000a0: 3bb3 603c 3f19 263d f337 c9bb 28e9 273d
000000b0: 598c 5ebc f73a 68bb c24b a4bc 9afa da3c
000000c0: bcb8 ccbb f737 bb3c 5d4d 0d3d 67b6 cdbb
000000d0: 3c6d f03b bf51 293d 287b 123d 0000 0000
000000e0: dde6 74bc f4cf f33c 3e60 fa3c c1a8 bf3c
000000f0: 741b 9a3c 5cbe 2bbc bfbc 453d a229 d6bb

fc2.weight f4 [128, 64]
-0.09007894 -0.11741043 -0.17139192 0.14400207 0.073917985 0.05623005 0.15032277 -0.15088837
-0.16807118 0.06451903 0.14174408 0.097121 0.02198362 0.14603218 -0.06837894 0.1448478
0.16021864 -0.16279532 -0.02856176 0.15770863 0.13864431 -0.048623398 0.16560155 -0.1398461
0.03763202 0.020299295 0.05532687 0.09102908 0.049231093 0.09481061 0.13640605 0.07923205
0.115313694 0.1870789 0.117640845 0.026657352 -0.1532373 0.08035416 0.04403256 0.15038665
-0.07614506 0.010598726 -0.14941598 -0.056806926 0.12474708 -0.095335595 -0.10038804 -0.021887118
-0.0037651474 0.11692765 -0.103359036 0.04265235 -0.13696173 0.12082516 0.061200745 -0.02593759
0.11042185 0.14579368 -0.12949786 -0.123857155 0.081258364 -0.13397707 0.015555426 0.021880845
0.047682393 0.088363186 -0.11438387 -0.0040086396 -0.11533349 0.11288827 0.038959134 0.13557026
0.13319014 0.0637465 0.09504651 -0.005881602 -0.14818373 -0.082595006 -0.08748589 -0.08069347
-0.08941618 -0.17326808 0.019496733 -0.12504245 -0.14714547 0.035134017 -0.18158701 0.025251284
-0.015467044 0.09330391 0.13072416 0.06901931 -0.15751971 -0.02537766 0.06277413 -0.15509896
-0.18953256 -0.16493507 -0.14547682 0.06824109 -0.055497237 0.055210974 -0.09476303 -0.06359555
-0.04438416 0.15440628 0.011442813 -0.15947114 0.124759026 0.0008402211 0.15301402 -0.004705856
-0.16136298 0.016710747 -0.09457501 -0.12730023 0.017477209 0.07553943 -0.10408028 -0.05054933
-0.081596725 0.11550516 0.033837803 -0.05108694 -0.075354226 -0.073208585 -0.025287978 0.047589157
-0.05302928 -0.0886375 -0.1098774 0.15622428 -0.05774439 0.16623777 -0.010307955 -0.03140685
-0.052102666 -0.0029770373 0.0027088337 0.069944695 -0.09878958 0.16920139 0.06171152 -0.027050292
-0.11928882 0.036865346 0.0034083794 -0.008660749 -0.14871782 0.08943252 0.04141385 0.12490461
-0.1013993 0.09830164 0.1461951 0.041971646 0.14482002 -0.16395049 0.13388343 -0.05024515
0.077959634 0.13362533 0.04670348 0.011929425 0.08662861 0.18123741 -0.1468921 0.18291515
0.038452126 0.1176039 -0.011444962 -0.02816268 -0.008895313 -0.0314529 -0.13603598 0.13357715
0.106822886 -0.1645601 0.10368505 -0.11860017 -0.08687374 0.16055553 -0.0010256297 0.11285969
0.118645936 0.03416103 -0.14686765 0.1458274 -0.057253655 -0.11928623 -0.043077394 0.14104742
-0.023624714 0.09195004 0.022338467 -0.068820685 0.039012007 0.16404107 0.17495137 0.034273893
0.021334888 0.12851751 -0.057441343 -0.011429115 0.07737966 0.13836864 0.04940711 -0.02482147
-0.13878855 -0.014986097 -0.09655071 -0.0059814653 -0.013857173 0.08172955 0.18058284 0.039058626
0.015029059 -0.09794459 -0.105155215 -0.142839 0.067349896 0.037754096 0.16225877 0.09938304
0.022915972 -0.040003248 0.14085154 -0.12695934 -0.0061296485 0.08481887 -0.14327763 0.15072191
-0.048180528 0.17379154 -0.0146402465 -0.07326706 0.0820231 -0.092621885 -0.12646924 -0.05634188
0.1250748 0.069633976 0.15454043 -0.044810332 0.0003614413 -0.017712314 0.18618828 0.013253856
-0.16193841 0.06991817 -0.116021484 0.061266392 0.06766548 -0.08047089 -0.13202794 -0.010316875
00000000: 4f7b b8bd e174 f0bd 5d81 2fbe 4775 133e
00000010: 5062 973d 7b51 663d 36ee 193e 7b82 1abe
00000020: da1a 2cbe 8e22 843d 5c25 113e 60e7 c63d
00000030: fe16 b43c 7689 153e 420a 8cbd fb52 143e
00000040: 5b10 243e d1b3 26be 5afa e9bc 5f7e 213e
00000050: c6f8 0d3e 5429 47bd 7493 293e d133 0fbe
00000060: 0824 1a3d b54a a63c 6e9e 623d 746d ba3d
00000070: 8ba6 493d 112c c23d 07ae 0b3e 6a44 a23d
00000080: 9629 ec3d 9c91 3f3e afed f03d 8560 da3c
00000090: 3dea 1cbe b990 a43d 7c5b 343d f5fe 193e
000000a0: f1f1 9bbd 47a6 2d3c 8100 19be 61ae 68bd
000000b0: 667b ff3d 4f3f c3bd 3f98 cdbd 9d4c b3bc
000000c0: b1c0 76bb c477 ef3d e7ad d3bd 3bb4 2e3d
000000d0: b23f 0cbe 2e73 f73d a2ad 7a3d 127b d4bc
000000e0: da24 e23d f04a 153e 169b 04be d2a8 fdbd
000000f0: c96a a63d 4931 09be 2fdc 7e3c 753f b33c
00000100: 9d4e 433d c2f7 b43d 1742 eabd e85a 83bb
00000110: f733 ecbd f731 e73d 9d93 1f3d eed2 0a3e
00000120: ff62 083e 868d 823d bfa7 c23d 74ba c0bb
00000130: 7abd 17be 9227 a9bd cd2b b3bd 9e42 a5bd
00000140: d51f b7bd 306d 31be 9db7 9f3c 210b 00be
00000150: 4dad 16be b0e8 0f3d f2f1 39be c8db ce3c
00000160: 7c69 7dbc 1f16 bf3d 8edc 053e ff59 8d3d
00000170: d94c 21be cfe4 cfbc b98f 803d 43d2 1ebe
00000180: d314 42be bde4 28be e0f7 14be fcc1 8b3d
00000190: 1251 63bd e724 623d 1f13 c2bd 623e 82bd
000001a0: 2acc 35bd ae1c 1e3e a37a 3b3c 674c 23be
000001b0: a981 ff3d 4942 5c3a b5af 1c3e 9533 9abb
000001c0: 563c 25be fae4 883c 8bb0 c1bd fe5a 02be
000001d0: 5d2c 8f3c 6bb4 9a3d 0b28 d5bd d00c 4fbd
000001e0: 2f1c a7bd f88d ec3d 8299 0a3d 8a40 51bd
000001f0: 5153 9abd 62ee 95bd bc28 cfbc d9ec 423d
00000200: 3b35 59bd 9487 b5bd 6707 e1bd 42f9 1f3e
00000210: 6285 6cbd 3c3a 2a3e b2e2 28bc 78a4 00bd
00000220: 9b69 55bd 661a 43bb b086 313b 2a3f 8f3d
00000230: 3152 cabd 2143 2d3e 38c5 7c3d 9398 ddbc
00000240: b24d f4bd 1e00 173d 1e5f 5f3b d0e5 0dbc
00000250: 7c49 18be 6628 b73d 92a1 293d fdcd ff3d
00000260: 70aa cfbd 5f52 c93d 2bb4 153e 76ea 2b3d
00000270: b34b 143e a3e2 27be bd18 093e dccd 4dbd
00000280: 4da9 9f3d 14d5 083e 264c 3f3d a373 433c
00000290: 576a b13d 4d96 393e e26a 16be 1c4e 3b3e
000002a0: fa7f 1d3d 50da f03d a683 3bbc 6cb5 e6bc
000002b0: a6bd 11bc c2d4 00bd 044d 0bbe 73c8 083e
000002c0: f5c5 da3d 7182 28be d458 d43d a5e4 f2bd
000002d0: dcea b1bd ab68 243e 6c6e 86ba fb22 e73d
000002e0: a4fc f23d 70ec 0b3d 7964 16be c753 153e
000002f0: cf82 6abd 574c f4bd ec71 30bd bc6e 103e
00000300: 9e88 c1bc 4d50 bc3d 29ff b63c dcf1 8cbd
00000310: 0ecb 1f3d 62fa 273e 7426 333e c862 0c3d
00000320: 81c6 ae3c 189a 033e 9d47 6bbd 2f41 3bbc
00000330: 3a79 9e3d 82b0 0d3e 1c5f 4a3d 6556 cbbc
00000340: 961e 0ebe 3f88 75bc 61bc c5bd 2b00 c4bb
00000350: 3209 63bc d361 a73d b5ea 383e f0fb 1f3d
00000360: 713c 763c 2c97 c8bd 9e5b d7bd 6344 12be
00000370: beee 893d 0aa4 1a3d 2a27 263e 5689 cb3d
00000380: 47ba bb3c 72da 23bd 633b 103e a101 02be
00000390: 38db c8bb 84b5 ad3d 5fb7 12be d856 1a3e
000003a0: f258 45bd 69f6 313e a5dd 6fbc 0a0d 96bd
000003b0: bafb a73d 8bb0 bdbd 2781 01be bec6 66bd
000003c0: 9c13 003e 429c 8e3d d93f 1e3e 0a8b 37bd
000003d0: d57f bd39 6a19 91bc 24a8 3e3e b426 593c
000003e0: 2fd3 25be 4231 8f3d ac9c edbd 78f2 7a3d
000003f0: 3394 8a3d eccd a4bd 5532 07be 1c08 29bc

fc2.bias f4 [128]
-0.001082655 -0.016213348 0.015382691 0.023009768 0.035027787 0.029978022 0.032701664 0.028450588
0.024605332 -0.029540684 -0.009426114 0.007764717 -0.008616211 0.02289274 -0.0070356354 -0.009893545
0.010646513 -0.017591674 0.041367438 0.0377769 0.034714404 -0.0008280681 0.030456698 0.029188987
0.018059703 0.01096056 -0.00996295 0.021788917 0.039018527 0.029795086 0.0 0.004394947
0.0016934031 0.012148498 0.00911034 0.006272018 -0.014951075 0.020072537 0.029679453 0.029152721
0.037913047 0.0 0.01348998 0.021538287 -0.00295068 0.0036427067 0.03143347 0.040625412
0.014642209 0.014181467 0.0 0.038223628 0.0015496052 -0.0052918163 0.033305813 -0.0075368113
0.020465119 0.027312232 0.0399999 0.007847915 0.021354036 0.03973244 0.024534933 0.015969088
0.02162837 0.010951508 0.034440316 0.020750245 0.014181701 0.005049249 0.0048303814 0.014238506
-0.004740055 0.030239834 0.012004379 0.026553398 -0.009805264 0.00723229 -0.004994984 0.0026774264
0.0076972875 -0.009202672 0.03469527 0.025041576 -0.012259822 0.03048057 0.0147217475 0.020864518
0.0 0.013203058 0.031318687 0.021672394 -0.0017212757 0.026826015 0.026645342 0.016545853
-0.00260148 0.017214729 0.014202714 0.023868352 0.024380963 -0.008399147 -0.010501086 0.01516567
-0.012584153 0.038663264 0.0124400705 0.014333802 0.02428415 0.0 0.03262779 0.009158227
0.0414179 0.03945477 0.00041298015 0.038848575 0.030215625 0.0111326305 -0.010971725 0.0146781895
-0.012885631 0.0131308455 0.039995503 0.0324249 -0.0016287458 0.007933468 0.0140542155 0.013003101
00000000: e0e7 8dba dbd1 84bc af07 7c3c fb7e bc3c
00000010: 4c79 0f3d 7894 f53c 2ef2 053d 3511 e93c
00000020: 1f91 c93c 4eff f1bc fd6f 1abc 2b6f fe3b
00000030: 022b 0dbc 8e89 bb3c 308b e6bb 8918 22bc
00000040: b66e 2e3c 6a1c 90bc e770 293d f3bb 1a3d
00000050: b130 0e3d b612 59ba 5380 f93c be1d ef3c
00000060: f1f1 933c ec93 333c a43b 23bc ac7e b23c
00000070: e4d1 1f3d d314 f43c 0000 0000 7d03 903b
00000080: 2ef5 dd3a 7e0a 473c 8943 153c 8085 cd3b
00000090: 5bf5 74bc 296f a43c 5322 f33c b0d1 ee3c
000000a0: b64a 1b3d 0000 0000 1405 5d3c 1071 b03c
000000b0: 3260 41bb 7aba 6e3b 62c0 003d d566 263d
000000c0: e0e5 6f3c 6259 683c 0000 0000 6190 1c3d
000000d0: 1f1c cb3a f966 adbb ad6b 083d 5bf7 f6bb
000000e0: 77a6 a73c e7bd df3c efd6 233d 8b94 003c
000000f0: a9ee ae3c 7cbe 223d 7cfd c83c 9bd1 823c
00000100: fb2d b13c f46d 333c 4a11 0d3d 6bfc a93c
00000110: 5d5a 683c 2c74 a53b 2d48 9e3b 9f48 693c
00000120: 7752 9bbb 87b9 f73c 04ae 443c 8386 d93c
00000130: 42a6 20bc d9fc ec3b f6ac a3bb c377 2f3b
00000140: 8739 fc3b cec6 16bc a11c 0e3d fe23 cd3c
00000150: 6cdd 48bc 63b2 f93c 7c33 713c 11ec aa3c
00000160: 0000 0000 a451 583c 0648 003d 4e8a b13c
00000170: 6e9c e1ba 3bc2 db3c 5547 da3c 2b8b 873c
00000180: 987d 2abb e705 8d3c 80b2 683c 9087 c33c
00000190: 96ba c73c 939c 09bc bf0c 2cbc 6e79 783c
000001a0: c32d 4ebc 5f5d 1e3d 70d1 4b3c 53d8 6a3c
000001b0: 8eef c63c 0000 0000 b8a4 053d 630c 163c
000001c0: d1a5 293d 539b 213d 4285 d839 af1f 1f3d
000001d0: c286 f73c a365 363c c0c2 33bc ca7c 703c
000001e0: 411e 53bc c222 573c 53d2 233d f9cf 043d
000001f0: a47b d5ba 60fb 013c a743 663c f50a 553c

fc3.weight f4 [64, 128]
-0.1436778 -0.024278145 -0.021957198 0.188125 0.100207746 0.04620803 -0.09359497 -0.10483061
-0.14048553 -0.08869841 -0.1485428 0.11927716 0.17508426 -0.01384089 -0.026770834 0.13327555
-0.07335692 0.067097075 -0.12719852 0.18121454 -0.027894668 0.059307553 -0.13963717 0.035535857
-0.013444534 -0.11452624 -0.16117515 -0.0693579 0.16064039 -0.026054166 0.0022537606 0.1486425
0.11929777 0.1982753 0.18640971 0.030683767 0.018119425 0.20222129 -0.08019427 0.00063792884
0.0023335044 0.042044494 0.034548357 -0.08805975 0.08268199 0.0020640143 -0.026994642 0.1507871
0.12804551 0.01423354 -0.14177737 -0.14471114 -0.074890964 -0.17096359 0.16372892 0.01644106
-0.13861935 -0.041948844 0.060499575 -0.029541437 -0.013137452 -0.09940677 0.18076226 0.047082655
0.17092812 -0.004639731 0.12138571 -0.13678578 0.07116939 -0.09924285 0.15707001 -0.117610745
-0.10572279 -0.09901491 -0.12763608 -0.15691103 -0.13852677 0.1544796 -0.01980227 0.018027505
0.19673696 -0.08018251 -0.03757159 -0.114234015 0.14554052 -0.14853387 -0.10470699 -0.024708362
0.028791796 0.14018372 -0.03383978 -0.031745564 0.083286434 0.089919046 0.20709075 0.16697468
-0.12768845 0.10100526 0.11643158 -0.16782275 0.112351075 -0.11674639 0.07864852 0.049334425
-0.023305507 -0.0066931294 -0.11547606 -0.10324284 0.056816928 0.020088304 -0.0930837 -0.14331004
0.072315514 0.11077916 0.1601728 -0.076356165 -0.047071848 -0.07905912 0.078859776 -0.14500394
-0.15779988 -0.056546014 -0.067955814 0.10566907 -0.0360745 0.044813424 -0.11533896 0.16830443
0.12349424 0.050221603 0.05660063 -0.17411736 -0.12878615 -0.009326723 -0.018734336 0.076095976
0.052593436 -0.01118804 0.07134217 -0.038689163 0.094689235 -0.14437343 0.095279284 0.14862843
-0.012714305 0.087561615 -0.116451226 0.00022104132 -0.056751717 -0.012011927 -0.053083982 0.12923017
-0.08380292 0.050414752 0.09623415 0.14779061 0.13123439 -0.11209823 -0.026424767 0.10976081
0.049997095 0.07709234 0.050753336 -0.168879 0.07323969 0.1309202 0.07842152 -0.08346583
-0.04525446 -0.06295449 0.032353677 0.073069334 -0.11449053 -0.0041920957 -0.032486152 0.1239369
-0.025641147 -0.09958383 0.10002066 -0.087664396 -0.012694399 -0.049555358 0.06795348 -0.04870394
0.04810631 -0.11166744 -0.02403768 0.16315076 -0.11313478 -0.020957848 -0.020997413 0.013164331
-0.08009038 0.06212875 -0.05317328 0.013766244 0.15552466 0.14863117 -0.050372675 -0.09138553
-0.11129081 -0.042292975 0.014236701 0.047904197 -0.06148047 0.081049815 -0.008202983 0.03654172
0.16930136 0.0008597761 0.018665915 -0.041086555 0.117719725 -0.15822612 -0.08315889 0.032709114
0.10148944 -0.1846308 -0.020133547 0.028894281 0.14502345 0.08244542 0.15553363 -0.039192718
-0.17798114 0.02041913 0.11737516 -0.004358034 0.02789076 0.16237877 -0.16020198 0.03850733
0.05416027 0.042627525 -0.049823176 -0.068113886 0.0884308 0.044134494 0.034280065 -0.010717419
-0.1264312 0.07380772 -0.1054002 -0.10533456 -0.090830944 -0.15756516 -0.14735337 -0.030302072
-0.18400802 0.12713082 -0.14330226 0.059765723 0.06885612 -0.077131756 0.031742573 0.15542425
00000000: 4620 13be f6e2 c6bc 95df b3bc d7a3 403e
00000010: b839 cd3d a244 3d3d b8ae bfbd 6eb1 d6bd
00000020: 70db 0fbe 83a7 b5bd 9b1b 18be 9547 f43d
00000030: 4a49 333e e6c4 62bc 824e dbbc 6379 083e
00000040: 273c 96bd 316a 893d 5440 02be 4e90 393e
00000050: 5c83 e4bc 7aec 723d 0cfd 0ebe 0c8e 113d
00000060: 7646 5cbc bc8c eabd 190b 25be 840b 8ebd
00000070: ea7e 243e 8c6f d5bc d4b3 133b bd35 183e
00000080: 6452 f43d ae08 4b3e 30e2 3e3e 865c fb3c
00000090: 306f 943c 1913 4f3e e53c a4bd ae3a 273a
000000a0: b5ed 183b d936 2c3d 9482 0d3d ac58 b4bd
000000b0: 2d55 a93d 6a44 073b de23 ddbc ef67 1a3e
000000c0: 5d1e 033e cb33 693c 162e 11be 282f 14be
000000d0: 6f60 99bd 1411 2fbe 8ea8 273e 67af 863c
000000e0: 3bf2 0dbe 8dd2 2bbd 67ce 773d e200 f2bc
000000f0: 783e 57bc c795 cbbd be19 393e bed9 403d
00000100: c807 2f3e e208 98bb 1299 f83d 9211 0cbe
00000110: 42c1 913d d63f cbbd f6d6 203e e7dd f0bd
00000120: 3185 d8bd 54c8 cabd 08b3 02be 49ad 20be
00000130: f6d9 0dbe e62f 1e3e 5f38 a2bc 6bae 933c
00000140: 6a75 493e ba36 a4bd abe4 19bd 86f3 e9bd
00000150: 9308 153e 4319 18be 9e70 d6bd 3169 cabc
00000160: c6dc eb3c 528c 0f3e 959b 0abd a307 02bd
00000170: 1492 aa3d 7a27 b83d 990f 543e 69fb 2a3e
00000180: c3c0 02be d9db ce3d ae73 ee3d bad9 2bbe
00000190: 5218 e63d bb18 efbd 7a12 a13d e512 4a3d
000001a0: 31eb bebc 0a52 dbbb b67e ecbd fb70 d3bd
000001b0: deb8 683d 3a90 a43c aba2 bebd debf 12be
000001c0: 281a 943d 2fe0 e23d 5704 243e 9f60 9cbd
000001d0: 69ce 40bd bfe9 a1bd 3c81 a13d ea7b 14be
000001e0: 4b96 21be cb9c 67bd 6b2c 8bbd 0669 d83d
000001f0: dbc2 13bd 488e 373d d536 ecbd ff57 2c3e
00000200: 8cea fc3d 2bb5 4d3d 10d6 673d d24b 32be
00000210: 84e0 03be 1dcf 18bc c078 99bc 35d8 9b3d
00000220: 376c 573d 0a4e 37bc d81b 923d 8778 1ebd
00000230: 6eec c13d a1d6 13be c921 c33d 0d32 183e
00000240: a94f 50bc 8153 b33d fb7d eebd 54c7 6739
00000250: 7d74 68bd accd 44bc 976e 59bd ea54 043e
00000260: dea0 abbd b37f 4e3d 6916 c53d 6c56 173e
00000270: 4f62 063e c293 e5bd c178 d8bc 47ca e03d
00000280: c1c9 4c3d 97e2 9d3d bbe2 4f3d 9eee 2cbe
00000290: b1fe 953d f20f 063e 769b a03d 22f0 aabd
000002a0: be5c 39bd 49ee 80bd 4a85 043d 60a5 953d
000002b0: 037a eabd d95d 89bb 3310 05bd a1d2 fd3d
000002c0: 620d d2bc 9bf2 cbbd a2d7 cc3d 6489 b3bd
000002d0: 2bfc 4fbc 8ffa 4abd 322b 8b3d c87d 47bd
000002e0: 1f0b 453d e6b1 e4bd abea c4bc fe10 273e
000002f0: 35b3 e7bd cbaf abbc c402 acbc 35af 573c
00000300: 6d06 a4bd b77a 7e3d 3acc 59bd d08b 613c
00000310: db41 1f3e c532 183e 9453 4ebd 5628 bbbd
00000320: 70ec e3bd 663b 2dbd 0d41 693c 3137 443d
00000330: f2d2 7bbd 72fd a53d ce65 06bc c5ac 153d
00000340: 565d 2d3e 9962 613a 43e9 983c 604a 28bd
00000350: 0a17 f13d 0706 22be 354f aabd fef9 053d
00000360: b2d9 cf3d db0f 3dbe 1cef a4bc b3b3 ec3c
00000370: 0781 143e 25d9 a83d 3544 1f3e 8b88 20bd
00000380: b040 36be 0546 a73c 6362 f03d d7cd 8ebb
00000390: 2a7b e43c 9f46 263e fd0b 24be ddb9 1d3d
000003a0: 29d7 5d3d 339a 2e3d 6313 4cbd 4b7f 8bbd
000003b0: 351b b53d 5fc6 343d 4169 0c3d 1d98 2fbc
000003c0: 2e77 01be 8028 973d 0fdc d7bd a5b9 d7bd
000003d0: 9305 babd c358 21be cde3 16be 0d3c f8bc
000003e0: 996c 3cbe 952e 023e d4bd 12be e7cc 743d
000003f0: 7004 8d3d 41f7 9dbd 8004 023d 8927 1f3e

fc3.bias f4 [64]
0.017902283 -0.0076092137 0.005603115 0.021048155 0.040564347 -0.018343292 0.019417912 0.013965351
-0.01291887 0.013205301 0.01501145 0.039933592 -0.009466499 0.017013857 0.031271894 0.022561463
0.016596619 0.02913002 -0.0015946919 0.026026217 -0.0023158565 0.022887385 -0.007517654 0.03783417
0.028036188 0.0 0.022623831 0.008781496 -0.010991724 0.023592558 0.031185253 -0.009756636
-0.0075561274 0.017137084 0.025323704 0.027140273 0.024432601 0.017614609 0.012402653 0.021859877
-0.0008435808 0.0122761 0.02986955 0.03718587 0.016593937 0.021333858 -0.0050935433 0.022804543
0.025917497 -0.0004386179 -0.01788403 -0.008782131 -0.0036824197 0.032828335 0.022195263 -0.01222488
0.027723152 -0.020828903 0.033736065 0.0058535305 0.039073758 0.024757162 0.020847982 0.033693876
00000000: cfa7 923c b656 f9bb 569a b73b 2e6d ac3c
00000010: cd26 263d ac44 96bc 5012 9f3c edce 643c
00000020: aba9 53bc 0c5b 583c 96f2 753c 6891 233d
00000030: 6019 1bbc a560 8b3c f516 003d d1d2 b83c
00000040: a2f5 873c 14a2 ee3c fb04 d1ba ef34 d53c
00000050: a0c5 17bb 537e bb3c a756 f6bb 01f8 1a3d
00000060: 26ac e53c 0000 0000 9d55 b93c 44e0 0f3c
00000070: a216 34bc 2e45 c13c 3778 ff3c 4cda 1fbc
00000080: 6499 f7bb 1263 8c3c a873 cf3c 4755 de3c
00000090: e126 c83c 834c 903c 7f34 4b3c 7c13 b33c
000000a0: c023 5dba b221 493c fdb0 f43c 3650 183d
000000b0: 02f0 873c 58c4 ae3c bde7 a6bb 98d0 ba3c
000000c0: ee50 d43c 4cf6 e5b9 8781 92bc ede2 0fbc
000000d0: c054 71bb 0177 063d d7d2 b53c dd4a 48bc
000000e0: aa1b e33c 60a1 aabc d42e 0a3d f9ce bf3b
000000f0: ce0b 203d 88cf ca3c 63c9 aa3c 9702 0a3d

fc4.weight f4 [80, 64]
-0.1286223 0.20543472 -0.05035369 0.18618107 0.12583205 -0.17593066 -0.097923495 -0.022103371
-0.14836133 -0.13897751 -0.12920192 -0.1296243 -0.021080852 -0.12035364 -0.08553362 -0.18802305
-0.06858545 0.21945749 0.05371536 0.2032704 -0.114645414 0.06767397 -0.1454134 0.08085638
0.2033485 -0.113548845 0.12031647 -0.050665345 -0.15980001 0.08533182 -0.0865289 -0.08088502
-0.17507426 0.12390385 -0.075042546 -0.11284354 -0.11321411 -0.071328364 0.06904004 0.11869378
0.07468802 0.1300119 -0.119159564 0.008203557 0.015926965 0.07935174 0.018083813 0.051437344
0.084153496 0.09119441 0.14224544 -0.051747765 -0.07113018 0.030777618 -0.0957772 -0.13512053
0.124202415 -0.14703487 0.12533113 0.09377222 -0.13827893 0.15780409 0.16606721 -0.11188592
0.08414347 0.14040129 -0.17974228 -0.17533945 -0.15787025 0.15184028 -0.0057346295 0.17886195
-0.13992989 -0.089793526 -0.18163937 0.20530134 -0.16534872 0.17233217 -0.1475777 0.003292061
-0.13361077 0.0068938383 -0.041421536 0.17927508 -0.027940316 0.1678258 -0.081301585 0.121364236
0.14694417 -0.09581474 -0.023698235 0.15751916 -0.03029893 0.0834079 0.11002355 -0.19399613
0.017916305 -0.0075307884 -0.064846836 -0.15470019 -0.0030738944 0.17196289 -0.09920568 0.03254967
-0.21378455 0.15674381 0.013497379 0.14348395 -0.040437214 -0.023763902 -0.048201725 -0.0038740123
0.09535348 0.16234306 -0.22395039 0.15245737 0.03500086 0.005276065 -0.18029025 -0.060587488
-0.18173958 -0.046028726 0.083354406 -0.17630363 0.1397638 0.22948512 0.099040315 0.0623011
0.18347125 -0.089222096 -0.2125904 0.17452776 -0.16394694 -0.22438267 -0.074566424 -0.18619458
0.12593462 -0.014935307 0.1470105 -0.074486814 -0.17500117 -0.09574905 -0.02338037 0.15844329
0.17481378 0.18888699 0.00902534 0.19033752 0.019660115 -0.14676082 0.18619505 0.09528163
0.15281077 0.17755523 0.16298348 -0.1468196 0.20217097 -0.07692487 0.09870563 -0.15741293
0.122794345 0.0008716987 0.097647 0.20573235 -0.054681167 0.043082602 -0.02271167 0.0465691
-0.20359701 0.04580947 0.13061225 -0.1422976 -0.08451999 -0.06284305 0.050195016 0.05196482
0.15296222 -0.09926959 -0.13119136 0.069164574 -0.05331482 0.09292731 -0.03934323 0.12052254
-0.1524676 -0.14679843 -0.10404646 -0.059329897 0.028069122 -0.026333535 0.12730083 0.046388894
-0.18658128 -0.18552263 0.15969518 0.15360783 -0.005966812 0.04924883 -0.18859674 -0.15050419
0.12191358 0.017285228 0.13525893 0.12420062 0.06293137 0.17680266 -0.07452044 0.012689899
0.2290759 0.035726804 0.15916009 0.16634484 0.05126308 0.085471034 0.07003125 0.07159809
0.14785646 0.095276855 0.13114938 -0.18270732 0.034764405 0.0026488737 -0.1061052 0.07238816
0.07424042 -0.048896074 -0.043331068 -0.110288754 0.049390133 0.11240029 0.019646592 0.10060612
0.073526174 0.016342873 -0.10096188 -0.06269026 0.009966451 0.14572078 0.1314243 -0.031932864
0.14950842 -0.13017502 -0.104106665 -0.20280349 -0.10395352 0.15829785 -0.039224435 -0.04308818
0.026256086 -0.0018925584 -0.04569723 0.10275485 0.11333385 0.06227954 -0.032886937 -0.14571509
00000000: 90b5 03be 7b5d 523e ac3f 4ebd 40a6 3e3e
00000010: 1eda 003e 2b27 34be 1d8c c8bd 2112 b5bc
00000020: 08ec 17be 1f50 0ebe 824d 04be 3cbc 04be
00000030: c0b1 acbc f87b f6bd 402c afbd 1d89 40be
00000040: 8776 8cbd 77b9 603e a304 5c3d 1e26 503e
00000050: 37cb eabd a698 8a3d 40e7 14be 0898 a53d
00000060: 973a 503e 4c8c e8bd 7b68 f63d 7786 4fbd
00000070: 9da2 23be 73c2 ae3d 1036 b1bd 0ca7 a5bd
00000080: ab46 33be 4dc1 fd3d e8af 99bd 841a e7bd
00000090: cddc e7bd 9b14 92bd dd64 8d3d b915 f33d
000000a0: 08f6 983d d721 053e ee09 f4bd 3668 063c
000000b0: 4479 823c 2a83 a23d 8124 943c f7af 523d
000000c0: ab58 ac3d 23c4 ba3d caa8 113e 77f5 53bd
000000d0: b3ac 91bd 5821 fc3c d626 c4bd 095d 0abe
000000e0: d65d fe3d 4f90 16be ce56 003e a60b c03d
000000f0: fe98 0dbe 6597 213e 860d 2a3e 7224 e5bd
00000100: 6953 ac3d 5bc5 0f3e 5c0e 38be 2f8c 33be
00000110: bda8 21be 057c 1b3e 8fe9 bbbb 9627 373e
00000120: c849 0fbe abe5 b7bd acff 39be 843a 523e
00000130: 2d51 29be d877 303e 9c1e 17be 9ebf 573b
00000140: 43d1 08be b5e5 e13b a1a9 29bd e393 373e
00000150: 17e3 e4bc 87da 2b3e 7281 a6bd d08d f83d
00000160: 8878 163e 853a c4bd cd22 c2bc b44c 213e
00000170: 7635 f8bc c3d1 aa3d 0754 e13d eca6 46be
00000180: 37c5 923c d5c4 f6bb 6bce 84bd ba69 1ebe
00000190: 6473 49bb 0a17 303e 592c cbbd ce52 053d
000001a0: 56ea 5abe 7381 203e 1c24 5d3c 75ed 123e
000001b0: 7ea1 25bd 84ac c2bc 2c6f 45bd 24e3 7dbb
000001c0: af48 c33d 423d 263e 4053 65be c91d 1c3e
000001d0: 105d 0f3d d7e2 ac3b 029e 38be 962a 78bd
000001e0: f119 3abe 9e88 3cbd b7b5 aa3d f088 34be
000001f0: 3e1e 0f3e 26fe 6a3e a6d5 ca3d 702f 7f3d
00000200: e3df 3b3e 13ba b6bd 4cb1 59be 68b7 323e
00000210: b5e1 27be 92c4 65be 48b6 98bd cba9 3ebe
00000220: 01f5 003e 38b3 74bc ec89 163e 8b8c 98bd
00000230: 8233 33be 1418 c4bd 3188 bfbc f53e 223e
00000240: 6202 333e 976b 413e 05df 133c d7e7 423e
00000250: 400e a13c 7848 16be eaa9 3e3e 0423 c33d
00000260: 6d7a 1c3e 0ad1 353e 24e5 263e e157 16be
00000270: e805 4f3e c98a 9dbd 2d26 ca3d db30 21be
00000280: 9a7b fb3d b682 643a 26fb c73d 80ab 523e
00000290: 5cf9 5fbd 6277 303d d30d babc 3ebf 3e3d
000002a0: bc7b 50be b6a2 3b3d 38bf 053e 76b6 11be
000002b0: d118 adbd dbb3 80bd 4a99 4d3d 10d9 543d
000002c0: 21a2 1c3e db4d cbbd 0757 06be 28a6 8d3d
000002d0: a460 5abd ac50 be3d 5e26 21bd 85d4 f63d
000002e0: 7720 1cbe 5452 16be 4f16 d5bd e803 73bd
000002f0: 37f1 e53c 6db9 d7bc 265b 023e 4802 3e3d
00000300: 2a0f 3fbe a5f9 3dbe 2287 233e 5f4b 1d3e
00000310: 3f85 c3bb 24b9 493d 811f 41be c51d 1abe
00000320: d4ad f93d c099 8d3c 5181 0a3e e55c fe3d
00000330: 2ae2 803d c20b 353e 2c9e 98bd 4be9 4f3c
00000340: df92 6a3e 4556 123d ddfa 223e 4d56 2a3e
00000350: 3cf9 513d 700b af3d 8b6c 8f3d 05a2 923d
00000360: af67 173e 8320 c33d 064c 063e a117 3bbe
00000370: 1f65 0e3d ba98 2d3b af4d d9bd 3e40 943d
00000380: 5c0b 983d 4047 48bd eb7b 31bd 12df e1bd
00000390: 4f4d 4a3d 2032 e63d e4f1 a03c 950a ce3d
000003a0: e494 963d 7de1 853c 1ac5 cebd c063 80bd
000003b0: 534a 233c d437 153e 1794 063e 09cc 02bd
000003c0: bc18 193e 9a4c 05be e035 d5bd b8ab 4fbe
000003d0: 95e5 d4bd d518 223e cda9 20bd 3b7d 30bd
000003e0: 0117 d73c b90f f8ba 052d 3bbd 2371 d23d
000003f0: 941b e83d d518 7f3d 74b4 06bd 5636 15be

fc4.bias f4 [80]
0.020811157 0.02275816 0.011705439 0.025451643 -0.03802426 0.02983198 -0.040793926 0.029679285
-0.039504647 -0.008969578 -0.04623294 0.004795572 -0.0056861453 0.024212256 -0.008453768 -0.04323604
-0.040232167 -0.0120156715 -0.042305086 -0.007763013 -0.04095633 0.03168999 0.0062035206 -0.041161954
0.004112529 -0.0382617 -0.0453709 -0.040081672 -0.04105906 0.024536889 -0.040384185 -0.03718446
-0.04402528 -0.04842423 -0.043885358 -0.041712925 -0.04368335 -0.046322014 -0.03909951 -0.04535094
-0.04476185 -0.0409916 0.013994442 0.010368256 -0.042817738 -0.040969405 -0.04453174 0.006628573
-0.046094734 -0.039107732 -0.037584856 -0.04205846 -0.04435338 0.012052165 0.018405808 -0.040778544
0.014726905 -0.037962772 -0.04210456 -0.038091198 -0.0384854 -0.039271276 0.023873094 0.0042845146
-0.039225563 0.009370722 -0.040290855 -0.03968017 -0.044684403 -0.041276846 -0.04221559 -0.036843084
-0.03942127 -0.0406543 -0.041756414 0.016324757 -0.04234782 -0.04216457 0.008600004 -0.011043161
00000000: 297c aa3c 526f ba3c 2bc8 3f3c f77f d03c
00000010: 54bf 1bbd 3262 f43c 8817 27bd f921 f33c
00000020: a0cf 21bd 23f5 12bc c05e 3dbd 2c24 9d3b
00000030: d852 babb c858 c63c ac81 0abc 4618 31bd
00000040: 7cca 24bd 61dd 44bc 1948 2dbd df60 febb
00000050: d3c1 27bd 5dcd 013d e746 cb3b 7099 28bd
00000060: 65c2 863b 4db8 1cbd d6d6 39bd ae2c 24bd
00000070: 8b2d 28bd 9601 c93c e369 25bd bb4e 18bd
00000080: da53 34bd 7c58 46bd 22c1 33bd 2cdb 2abd
00000090: 50ed 32bd 27bc 3dbd cf26 20bd e8c1 39bd
000000a0: 3458 37bd cfe6 27bd f248 653c 9edf 293c
000000b0: a761 2fbd 89cf 27bd ea66 36bd 8034 d93b
000000c0: d5cd 3cbd 6e2f 20bd 94f2 19bd 7e45 2cbd
000000d0: e4ab 35bd 7276 453c c7c7 963c 6707 27bd
000000e0: 1e49 713c da7e 1bbd d575 2cbd 8405 1cbd
000000f0: dea2 1dbd ebda 20bd 8291 c33c 1d65 8c3b
00000100: fcaa 20bd a887 193c 0608 25bd ad87 22bd
00000110: fe06 37bd e911 29bd 41ea 2cbd c6e8 16bd
00000120: 3378 21bd 2085 26bd c608 2bbd 7fbb 853c
00000130: e874 2dbd c2b4 2cbd 08e7 0c3c 60ee 34bc

exp_avg f4 [64, 28]
0.0026016957 0.011648863 -0.016640402 0.0 0.0 0.004663168 -0.002569464 -0.001502889
-0.000921118 0.0 0.00022338028 -0.0026632743 0.00038035173 0.0 0.0 -0.0035248504
0.005782077 0.002416665 -0.0003047188 0.0032740503 -0.016160958 -0.0025515298 -0.00094619254 0.0014990158
0.0022365935 0.0025443675 0.000117780415 0.002233173 0.0 -0.0025944868 0.0 0.0
0.0 0.0 0.0 0.0 0.0 0.0 0.0 -0.0025944868
0.0 0.0 0.0 0.0 -0.0025944868 0.0 0.0 0.0
0.0 0.0 0.0 0.0 0.0 0.0 -0.00025944866 -0.0007349073
0.0025488706 -0.020569174 0.0 0.0 0.0 -0.012250946 0.00011292581 0.0
0.0 -0.0015762412 -0.00036729852 -0.00821539 0.004276645 0.0 0.0 -0.018497873
-0.012935579 -0.0029974575 -0.0053063426 -0.014228232 0.0013305632 -0.0031068253 0.0 0.0005453064
-0.00672957 -0.011436645 -0.018603187 -0.0037078226 -0.009375579 0.0058515435 -0.0021467847 0.0
0.0 -0.0009744028 0.0014044007 -0.0008955236 0.0 0.00011693533 0.0005874881 -0.001786317
-0.0041234004 0.0 0.0 -0.0054767863 -0.0055675036 0.0017807893 -0.009002524 3.4707227e-05
-0.004828194 3.4707227e-05 -0.00032209247 -0.0018441086 3.4707227e-05 -0.0007426096 -0.0034524954 -0.0012216956
-0.009334097 -0.001438899 -0.0037048697 0.0 0.0 -0.0011931808 0.0011184608 -0.0012706438
0.0 -0.0005372728 -0.00013601765 -0.0057796394 -0.006679572 0.0 0.0 -0.0109040225
-0.013394256 -0.0006712141 -0.010462442 0.0013002633 -0.005211889 0.0 -0.00041100112 -0.004437894
-8.626356e-06 -0.0015953133 -0.007284569 -0.0024440265 -0.009256179 -0.0016262011 0.0003911807 0.0
0.0 -0.005126166 0.00047062157 0.0 0.0 -0.0025435253 0.00092963345 -0.00581089
0.0015891265 0.0 0.0 -0.010491199 -0.008061053 0.0010204905 -0.0048467503 -0.0036123446
-0.0011391153 -0.0018775142 0.0 -0.00096464955 -0.0022916133 -0.004756066 -0.008791594 -0.0018642825
0.0029021974 0.0 -0.014317362 0.0 0.0 0.0017510721 -0.0044556656 -0.0020436859
-3.8457194e-05 7.808538e-05 0.0 -0.0051196977 -0.001586814 0.0 0.0 -0.011276986
-0.00066831964 -0.002775994 -0.002878012 0.0 -0.0117317755 -0.003095905 -0.0024156736 -0.00041617505
0.0 -0.00024894127 -0.005590901 -0.0045843055 -0.0050534173 0.012360578 -0.008346733 0.0
0.0 0.0021540958 -0.00080989115 -0.00044364462 -0.0036346386 -0.0006735307 0.0044003096 -0.00046149903
-0.0015707739 0.0 0.0 -0.0012569499 -0.0033278037 0.000503931 -0.006579887 0.005219783
-0.00841402 -0.0014246262 0.00027640696 -0.000612973 0.0019896014 -0.0009773433 0.00016928783 -0.0015470298
-0.00035134697 -0.00019905991 -0.0020978248 0.0 0.0 -0.0005922203 -0.0019581425 0.0011401551
0.00017377111 -0.00013852822 -0.0007556016 -0.0029029148 0.0023852503 0.0 0.0 -0.0026482302
0.007052918 -0.0005544878 0.0059381197 -0.0006909491 -0.002449171 -0.0025976815 0.0039700386 0.0
0.0005760414 -0.0011133265 -0.0018584015 0.001338825 -0.012659923 -0.0142949065 0.00465961 0.0
00000000: 3681 2a3b dfda 3e3c 7451 88bc 0000 0000
00000010: 0000 0000 7dcd 983b 7464 28bb 96fc c4ba
00000020: 2f77 71ba 0000 0000 303b 6a39 548a 2ebb
00000030: f269 c739 0000 0000 0000 0000 2d01 67bb
00000040: 9477 bd3b e960 1e3b aac2 9fb9 7391 563b
00000050: fc63 84bc 9137 27bb e809 78ba a07a c43a
00000060: d093 123b 67bf 263b e100 f738 6d5a 123b
00000070: 0000 0000 4408 2abb 0000 0000 0000 0000
00000080: 0000 0000 0000 0000 0000 0000 0000 0000
00000090: 0000 0000 0000 0000 0000 0000 4408 2abb
000000a0: 0000 0000 0000 0000 0000 0000 0000 0000
000000b0: 4408 2abb 0000 0000 0000 0000 0000 0000
000000c0: 0000 0000 0000 0000 0000 0000 0000 0000
000000d0: 0000 0000 0000 0000 9c06 88b9 cba6 40ba
000000e0: f40a 273b af80 a8bc 0000 0000 0000 0000
000000f0: 0000 0000 31b8 48bc 95d2 ec38 0000 0000
00000100: 0000 0000 e199 ceba f991 c0b9 d899 06bc
00000110: 1923 8c3b 0000 0000 0000 0000 da88 97bc
00000120: c0ef 53bc fe70 44bb d4e0 adbb 881d 69bc
00000130: 4b66 ae3a e19b 4bbb 0000 0000 e5f2 0e3a
00000140: ba83 dcbb c460 3bbc b665 98bc f1fe 72bb
00000150: 079c 19bc 4ebe bf3b 12b1 0cbb 0000 0000
00000160: 0000 0000 116f 7fba de13 b83a 92c1 6aba
00000170: 0000 0000 2d3b f538 a901 1a3a da22 eaba
00000180: 971d 87bb 0000 0000 0000 0000 9d76 b3bb
00000190: 9b6f b6bb 6069 e93a 537f 13bc 9a92 1138
000001a0: d435 9ebb 9a92 1138 85de a8b9 04b6 f1ba
000001b0: 9a92 1138 b0ab 42ba 4343 62bb 4d21 a0ba
000001c0: 0aee 18bc 7099 bcba 66cd 72bb 0000 0000
000001d0: 0000 0000 8164 9cba 5199 923a bb8b a6ba
000001e0: 0000 0000 c4d7 0cba f69f 0eb9 2163 bdbb
000001f0: 50e0 dabb 0000 0000 0000 0000 c9a6 32bc
00000200: 9573 5bbc 6af4 2fba aa6a 2bbc 996d aa3a
00000210: 7ec8 aabb 0000 0000 a37b d7b9 c16b 91bb
00000220: ebb9 10b7 d519 d1ba 65b3 eebb f62b 20bb
00000230: 3ba7 17bc 4126 d5ba 6317 cd39 0000 0000
00000240: 0000 0000 66f9 a7bb c2bd f639 0000 0000
00000250: 0000 0000 46b1 26bb a5b2 733a 4769 bebb
00000260: 3d4a d03a 0000 0000 0000 0000 47e3 2bbc
00000270: 8212 04bc fbc1 853a 7dd1 9ebb 16bd 6cbb
00000280: 5e4e 95ba ec16 f6ba 0000 0000 89e0 7cba
00000290: e42e 16bb c6d8 9bbb 9e0a 10bc f15a f4ba
000002a0: cb32 3e3b 0000 0000 5e93 6abc 0000 0000
000002b0: 0000 0000 3b84 e53a d500 92bb 5cef 05bb
000002c0: 194d 21b8 c5c1 a338 0000 0000 23c3 a7bb
000002d0: a4fc cfba 0000 0000 0000 0000 1cc3 38bc
000002e0: 2c32 2fba 73ed 35bb 079d 3cbb 0000 0000
000002f0: a236 40bc abe4 4abb 4750 1ebb 1232 dab9
00000300: 0000 0000 5584 82b9 e033 b7bb f137 96bb
00000310: 2397 a5bb 0684 4a3c bcc0 08bc 0000 0000
00000320: 0000 0000 bb2b 0d3b e04e 54ba f998 e8b9
00000330: 1e33 6ebb e18f 30ba 7930 903b 5af5 f1b9
00000340: 6de2 cdba 0000 0000 0000 0000 3dc0 a4ba
00000350: 4817 5abb 3d1a 043a 189c d7bb b70a ab3b
00000360: f5da 09bc 86ba baba b7ea 9039 ecaf 20ba
00000370: f963 023b 331a 80ba db82 3139 b5c5 caba
00000380: fe34 b8b9 bdba 50b9 a97b 09bb 0000 0000
00000390: 0000 0000 3b3f 1bba 2e54 00bb 4271 953a
000003a0: 5436 3639 e341 11b9 9113 46ba d43e 3ebb
000003b0: dc51 1c3b 0000 0000 0000 0000 ee8d 2dbb
000003c0: 2a1c e73b 0c5b 11ba 8f94 c23b cf20 35ba
000003d0: 4582 20bb dd3d 2abb 1917 823b 0000 0000
000003e0: 7c01 173a 0aed 91ba 9b95 f3ba 837b af3a
000003f0: 916b 4fbc 2f35 6abc a4af 983b 0000 0000

exp_avg_sq f4 [64, 28]
1.895143e-06 6.237527e-06 3.2163756e-05 0.0 0.0 1.9281706e-06 2.9807577e-06 1.8082909e-06
4.062285e-06 0.0 5.798951e-08 7.92182e-06 2.9156975e-06 0.0 0.0 3.170536e-05
1.753155e-05 7.169497e-07 2.5297943e-05 1.6836234e-06 3.175153e-05 1.5222445e-06 3.3793135e-06 8.2830354e-07
1.2031635e-06 1.3945896e-06 1.30530425e-05 1.2778701e-06 0.0 9.877527e-07 0.0 0.0
0.0 0.0 0.0 0.0 0.0 0.0 0.0 9.877527e-07
0.0 0.0 0.0 0.0 9.877527e-07 0.0 0.0 0.0
0.0 0.0 0.0 0.0 0.0 0.0 9.87753e-09 8.415995e-08
2.4290182e-06 2.814593e-05 0.0 0.0 0.0 1.4029765e-05 1.2737694e-07 0.0
0.0 4.93656e-07 1.1063562e-06 7.420233e-06 1.0385521e-06 0.0 0.0 2.8768627e-05
1.919877e-05 2.5340978e-06 9.684518e-06 1.3276889e-05 2.01229e-07 1.399125e-06 0.0 1.9047552e-07
4.7002522e-06 7.4499376e-06 2.4943667e-05 1.625258e-06 7.071165e-06 4.0619707e-06 3.3874624e-06 0.0
0.0 1.0247152e-06 9.388983e-07 8.8995887e-07 0.0 5.043528e-07 4.4327456e-07 3.8103335e-06
1.5836656e-06 0.0 0.0 1.1772795e-05 9.2655855e-06 1.7603212e-06 8.320789e-06 3.1808224e-08
3.8055168e-06 3.1808224e-08 1.0838702e-06 6.066786e-07 3.1808224e-08 1.2910149e-06 6.397584e-06 8.629588e-07
6.1311102e-06 2.2427137e-06 3.0526783e-06 0.0 0.0 8.348673e-07 1.1411382e-06 6.2988875e-07
0.0 5.6311825e-07 1.0799875e-08 5.6921594e-06 2.5837649e-06 0.0 0.0 1.2153113e-05
1.5379383e-05 2.364596e-06 1.06559255e-05 7.6335846e-07 3.812982e-06 0.0 3.035043e-07 2.1189321e-06
3.2166935e-07 1.0618927e-06 6.472956e-06 6.707506e-07 6.5616878e-06 3.0365177e-06 1.0644977e-07 0.0
0.0 2.918358e-06 1.0168093e-06 0.0 0.0 9.291495e-07 6.112306e-07 1.9607623e-06
1.0232969e-06 0.0 0.0 1.11745685e-05 9.194039e-06 2.0594953e-06 5.1491766e-06 2.361806e-06
5.1374985e-07 6.370823e-07 0.0 4.4346064e-07 1.6932655e-06 1.8048138e-06 6.9789035e-06 6.4100885e-07
4.0655973e-06 0.0 2.3541883e-05 0.0 0.0 4.2755835e-07 2.3568364e-06 1.7891706e-06
2.7810863e-06 1.1393576e-07 0.0 7.680327e-06 2.9030327e-06 0.0 0.0 2.8043536e-05
1.3546491e-05 1.7194508e-06 1.8790854e-05 0.0 2.1485586e-05 1.0431891e-06 3.1296868e-06 8.218581e-07
0.0 9.869469e-07 1.0831742e-05 2.538225e-06 5.9907634e-06 9.24126e-06 5.619303e-06 0.0
0.0 4.958977e-06 1.0086493e-06 1.1515442e-06 1.1403924e-06 5.4932667e-07 1.5546368e-06 4.424439e-06
1.1397558e-06 0.0 0.0 1.7383429e-05 1.2279811e-05 2.983636e-06 1.2831276e-05 5.2181626e-06
7.655811e-06 8.0554634e-07 1.6749652e-06 5.203888e-07 2.5976838e-06 3.3827496e-06 1.23089385e-05 1.8633975e-06
9.384382e-08 2.8668237e-06 8.738709e-06 0.0 0.0 2.297371e-06 1.8406007e-06 1.935296e-07
2.201335e-06 1.7914315e-08 2.7235436e-07 3.373197e-06 4.1632367e-07 0.0 0.0 1.7159098e-05
5.000779e-06 9.965888e-07 9.1640195e-06 1.825869e-06 9.195807e-06 2.136042e-06 1.956573e-06 0.0
1.4997936e-06 1.6647939e-06 9.29748e-06 1.0615132e-06 1.4183671e-05 2.3744557e-05 9.255431e-06 0.0
00000000: 9e5c fe35 f34b d136 92e7 0638 0000 0000
00000010: 0000 0000 b865 0136 0709 4836 67b4 f235
00000020: c34e 8836 0000 0000 2410 7933 f5e7 0437
00000030: 4dab 4336 0000 0000 0000 0000 5ffb 0438
00000040: b810 9337 6974 4035 eb36 d437 dcf8 e135
00000050: f22c 0538 ec4f cc35 2ac8 6236 9658 5e35
00000060: 627c a135 bc2d bb35 64fe 5a37 4883 ab35
00000070: 0000 0000 ed92 8435 0000 0000 0000 0000
00000080: 0000 0000 0000 0000 0000 0000 0000 0000
00000090: 0000 0000 0000 0000 0000 0000 ed92 8435
000000a0: 0000 0000 0000 0000 0000 0000 0000 0000
000000b0: ed92 8435 0000 0000 0000 0000 0000 0000
000000c0: 0000 0000 0000 0000 0000 0000 0000 0000
000000d0: 0000 0000 0000 0000 d6b1 2932 6cbb b433
000000e0: 3702 2336 ed1a ec37 0000 0000 0000 0000
000000f0: 0000 0000 6261 6b37 1bc5 0834 0000 0000
00000100: 0000 0000 c883 0435 1c7e 9435 51fb f836
00000110: 6164 8b35 0000 0000 0000 0000 2854 f137
00000120: 0b0d a137 780f 2a36 b07a 2237 cebf 5e37
00000130: 6811 5834 92c9 bb35 0000 0000 8385 4c34
00000140: dcb6 9d36 7afa f936 1e3e d137 7123 da35
00000150: d844 ed36 104c 8836 2954 6336 0000 0000
00000160: 0000 0000 f288 8935 9a08 7c35 82e5 6e35
00000170: 0000 0000 dc62 0735 31fb ed34 08b5 7f36
00000180: 568e d435 0000 0000 0000 0000 c583 4537
00000190: 6373 1b37 2d44 ec35 8499 0b37 839d 0833
000001a0: 4862 7f36 839d 0833 7f79 9135 a3da 2235
000001b0: 839d 0833 ef46 ad35 d4aa d636 14a6 6735
000001c0: d6b9 cd36 8781 1636 9ddc 4c36 0000 0000
000001d0: 0000 0000 a51b 6035 3629 9935 a015 2935
000001e0: 0000 0000 3129 1735 5a8a 3932 47ff be36
000001f0: be64 2d36 0000 0000 0000 0000 39e5 4b37
00000200: f902 8137 73af 1e36 dac6 3237 98e9 4c35
00000210: 88e2 7f36 0000 0000 50f1 a234 fa32 0e36
00000220: e6b1 ac34 5b86 8e35 4532 d936 a10d 3435
00000230: 782c dc36 fac6 4b36 6199 e433 0000 0000
00000240: 0000 0000 02d9 4336 4d79 8835 0000 0000
00000250: 0000 0000 ab6a 7935 7213 2435 a495 0336
00000260: 3758 8935 0000 0000 0000 0000 687a 3b37
00000270: 1940 1a37 dc35 0a36 17c7 ac36 857f 1e36
00000280: 9fe8 0935 f603 2b35 0000 0000 c414 ee34
00000290: 2944 e335 ee3c f235 532c ea36 cb11 2c35
000002a0: 376b 8836 0000 0000 cf7b c537 0000 0000
000002b0: 0000 0000 2c8b e534 242a 1e36 6f23 f035
000002c0: b3a2 3a36 d9ac f433 0000 0000 c1da 0037
000002d0: b9d1 4236 0000 0000 0000 0000 093f eb37
000002e0: bc45 6337 e1c7 e635 0da1 9d37 0000 0000
000002f0: f23b b437 b403 8c35 9c07 5236 a99d 5c35
00000300: 0000 0000 3d77 8435 fab9 3537 6056 2a36
00000310: 4404 c936 e90a 1b37 728d bc36 0000 0000
00000320: 0000 0000 4a65 a636 ed60 8735 c28e 9a35
00000330: 960f 9935 7175 1335 eaa8 d035 a475 9436
00000340: b6f9 9835 0000 0000 0000 0000 a1d2 9137
00000350: 6305 4e37 7a3a 4836 e945 5737 ad17 af36
00000360: 7571 0037 b93c 5835 5ecf e035 d9b0 0b35
00000370: de53 2e36 3203 6336 7d82 4e37 da19 fa35
00000380: 3087 c933 a863 4036 789c 1237 0000 0000
00000390: 0000 0000 892c 1a36 8f0a f735 03cd 4f34
000003a0: a6ba 1336 ffe1 9932 1938 9234 155f 6236
000003b0: 1783 df34 0000 0000 0000 0000 e2f0 8f37
000003c0: 5dcc a736 88c2 8535 2abf 1937 6210 f535
000003d0: b147 1a37 ec58 0f36 ab4d 0336 0000 0000
000003e0: 844c c935 e271 df35 5ffc 1b37 5179 8e35
000003f0: 67f6 6d37 0c2f c737 c647 1b37 0000 0000

exp_avg f4 [64]
-0.0023898443 -0.0025944868 -0.018020304 -0.0056708194 -0.014477862 -0.010491199 -0.011415164 -0.0010395726
-0.0026482302 -0.022295214 -0.01144889 0.00044808775 -0.011894776 -0.008377228 -0.0065854345 0.00311814
-0.003430403 0.0024952835 -0.00040413768 0.003594002 -0.0013871201 -0.018539235 -0.011278135 -0.009296449
-0.0027423918 -0.00048158545 -0.011898897 -0.024494134 -0.008453289 -0.0014916586 -0.009984705 -0.0032328656
-0.007319342 -0.0046389485 -0.0061001144 -0.011502039 -0.02597652 -0.005868515 -0.008586059 -0.005865685
0.0019940883 -0.016277127 -0.0018131174 -0.025028387 -0.01613041 -0.003621335 0.000631452 -0.016035864
-0.010057249 -0.010940536 -0.010979923 -0.007422734 -0.010778673 -0.018117819 -0.014611356 0.0
-0.0010035111 -0.01574378 -0.014550352 -0.012764203 -0.008266302 0.00092234893 -0.02225426 -0.0004370384
00000000: ef9e 1cbb 4408 2abb 519f 93bc 48d2 b9bb
00000010: 8e34 6dbc 47e3 2bbc ab06 3bbc 4542 88ba
00000020: ee8d 2dbb 74a4 b6bc 2094 3bbc 52ed ea39
00000030: 4ee2 42bc a440 09bc a1ca d7bb b559 4c3b
00000040: 9dd0 60bb e987 233b 71e2 d3b9 5989 6b3b
00000050: 07d0 b5ba 98df 97bc edc7 38bc 2250 18bc
00000060: b3b9 33bb 4e7d fcb9 97f3 42bc eca7 c8bc
00000070: aa7f 0abc c283 c3ba e396 23bc 7cde 53bb
00000080: 17d7 efbb 5202 98bb 78e3 c7bb 0c73 3cbc
00000090: b6cc d4bc ac4c c0bb 8bac 0cbc ef34 c0bb
000000a0: 40af 023b 9c57 85bc 20a6 edba 5508 cdbc
000000b0: ec23 84bc eb53 6dbb 0788 253a a55d 83bc
000000c0: 29c7 24bc ef3f 33bc 23e5 33bc 683a f3bb
000000d0: 0899 30bc d26b 94bc 7864 6fbc 0000 0000
000000e0: 3f88 83ba 1af9 80bc 9964 6ebc f320 51bc
000000f0: 626f 07bc cac9 713a 914e b6bc 4d22 e5b9

exp_avg_sq f4 [64]
3.1763222e-05 9.877527e-07 2.9842231e-05 1.1778791e-05 1.5963928e-05 1.11745685e-05 2.8220347e-05 1.7549972e-05
1.7159098e-05 7.2846764e-05 3.194204e-05 2.589062e-06 1.1106509e-05 4.799909e-05 2.1741329e-05 1.9912814e-06
1.0676968e-06 2.7548665e-05 1.961678e-06 5.6282747e-06 2.5589775e-06 8.746592e-05 5.4477216e-05 1.917152e-05
1.9361082e-06 6.255319e-07 5.952299e-05 5.7018227e-05 1.8735152e-05 5.4766946e-07 4.0340245e-05 2.3523904e-05
2.567271e-05 5.336399e-06 4.2971125e-05 2.7941445e-05 3.4229783e-05 5.5310855e-05 1.9317016e-05 2.2947213e-05
2.1582211e-05 7.5133015e-05 6.9492324e-07 5.5673663e-05 2.744941e-05 3.7399677e-06 7.586256e-07 2.8922477e-05
2.7791997e-05 2.479825e-05 5.788945e-06 9.986668e-06 2.5691517e-05 2.6468835e-05 3.460089e-05 0.0
1.535744e-05 4.6344092e-05 3.341411e-05 9.195246e-06 1.6760503e-05 1.9030085e-06 5.7621797e-05 2.8692995e-07
00000000: 8039 0538 ed92 8435 b455 fa37 869d 4537
00000010: 46ea 8537 687a 3b37 bcba ec37 4738 9337
00000020: e2f0 8f37 4fc5 9838 81f9 0538 bfbf 2d36
00000030: 1856 3a37 a152 4938 2661 b637 f4a1 0536
00000040: c84d 8f35 4f18 e737 5fa5 0336 83da bc36
00000050: e6ba 2b36 e96d b738 777e 6438 87d2 a037
00000060: 16ee 0136 3aea 2735 53a8 7938 db26 6f38
00000070: 6f29 9d37 8f03 1335 0233 2938 3355 c537
00000080: ba5b d737 520f b336 e53b 3438 cc63 ea37
00000090: f391 0f38 94fd 6738 fa0a a237 c47e c037
000000a0: 720b b537 bb90 9d38 c38a 3a35 2483 6938
000000b0: 2943 e637 28fc 7a36 5ba4 4b35 8c9e f237
000000c0: dc22 e937 d605 d037 a93e c236 6a8c 2737
000000d0: 1d84 d737 6409 de37 6c20 1138 0000 0000
000000e0: dad3 8037 9761 4238 2126 0c38 4845 1a37
000000f0: e898 8c37 e06a ff35 efae 7138 5a0b 9a34
