checkpoints/model_selector_v2.pth (torch, 297343 bytes, 24 tensors)

fc1.weight f4 [64, 28]
0.14443356 0.1168723 -0.3306457 0.35682967 0.44298527 0.15699083 0.33941185 0.1571124
0.0047335774 -0.053104714 -0.034705367 -0.10179842 0.44810647 0.1464017 -0.12101972 -0.2132658
0.26055813 0.09275877 0.1930083 -0.05578828 -0.27281222 -0.32205948 0.4580639 0.40684056
0.22147161 0.27618763 -0.09997838 -0.45281518 -0.055029698 -0.18643253 0.18609574 0.013300749
-0.012976916 0.14522994 -0.14824495 0.15388246 0.32575932 0.39662817 -0.20058885 -0.25000966
0.12414105 0.41453162 -0.12115109 0.287256 -0.06206284 0.04158023 -0.12516585 0.1768848
-0.13935396 0.27868497 0.21246454 0.13302729 0.0663237 -0.049946178 0.015489943 -1.4231765
0.056038737 0.013622012 0.3998568 0.014852749 -0.029910559 -0.10374951 -0.0899826 -0.12263138
-0.10184465 -0.047859557 0.42597806 0.09795086 0.35263878 0.028565528 -0.055088624 0.34085536
0.0663897 0.22085682 -0.2117215 -0.059373036 -0.2805575 0.11056849 -0.0020961142 0.08632929
-0.24330801 -0.36323845 -0.12557633 -1.185215 0.16343994 -0.030173453 0.2141167 -0.6848757
-0.74687976 0.17263745 -0.38535988 0.62252986 0.22960979 -0.097354926 -0.36590397 -0.31518167
-0.5825167 -0.23391473 0.184135 0.11133961 -0.5406069 -0.17061573 0.11487443 -0.52101254
0.2988949 -0.7471666 0.18133855 0.29867473 -0.40334925 -0.53073865 -0.24330239 -0.23372392
-0.20331424 -0.17227577 0.20060754 0.049804654 0.26354486 -0.052813068 0.25264984 0.055397097
0.09474463 0.15662262 -0.25489685 -0.3210817 -0.34115446 0.53082466 -0.020821577 0.2721877
-0.37381956 -0.08954934 -0.37417603 0.24625102 -0.12048438 0.10708569 -0.14432509 -0.35028625
0.33186412 0.5990136 0.45725507 -0.26445228 0.2947278 -0.09000637 0.21819736 -0.04177526
0.37765905 -0.34457624 -0.24848117 0.17115788 -0.49920735 0.44942725 -0.13860345 0.37463576
0.2827518 -0.27852756 -0.14328389 0.17968899 0.25810295 -0.18378812 -0.56538355 -0.71199256
-0.34715667 0.15640132 0.3934723 -0.3363533 -0.20206168 0.23634155 -0.011407091 0.034482956
0.4031374 0.21990809 0.25656766 0.27374044 -0.5440602 -0.08487534 0.20464936 0.031185865
0.17589696 0.42374426 0.018083626 0.1483943 0.1526912 0.4745451 -0.18098427 -0.15929614
-0.050201688 -0.14490232 -0.04246112 0.034911595 0.14345828 -0.063430615 0.14887655 -0.097930476
-0.07046017 -0.26422048 0.16244715 -1.5503882 -0.40882027 0.124259874 -0.06443005 -0.06358522
-0.071994804 0.14497074 0.19041353 0.11004516 0.3128716 -0.0778931 -0.3332284 0.29121673
-0.043742046 0.60332 -0.20564018 0.01528747 0.1897739 0.43788445 -0.11688474 -0.319103
0.013689594 -0.1633899 -0.026197309 0.01307901 0.15966295 0.6552572 -0.06962017 -1.0012213
-0.26443255 0.28557113 -0.17904444 0.10375405 -0.53366625 0.14685214 0.226986 -0.0877793
0.34073558 0.35971686 -0.31227535 -0.14050913 -0.7340795 0.55076414 -0.22303195 0.14000091
0.13450207 0.45879182 -0.09727235 0.15921241 0.25927204 0.31723398 0.17442255 0.6566029
0.2205842 0.080451 -0.26270065 0.2869999 0.19933598 0.3428879 -0.037208855 -0.6615375
00000000: 64e6 133e bf5a ef3d 654a a9be 61b2 b63e
00000010: f7ce e23e 34c2 203e 64c7 ad3e 13e2 203e
00000020: 201c 9b3b 5484 59bd 3727 0ebd b17b d0bd
00000030: 366e e53e 54ea 153e 30d9 f7bd 5a62 5abe
00000040: e067 853e 4ff8 bd3d f8a3 453e 4082 64bd
00000050: 0bae 8bbe fbe4 a4be 5a87 ea3e 684d d03e
00000060: 74c9 623e 7768 8d3e 77c1 ccbd 64d7 e7be
00000070: d266 61bd 2be8 3ebe e28f 3e3e 62eb 593c
00000080: 219d 54bc 28b7 143e 86cd 17be 5d93 1d3e
00000090: edc9 a63e d912 cb3e 2a67 4dbe 4401 80be
000000a0: aa3d fe3d 7d3d d43e 101e f8bd 3813 933e
000000b0: 9b35 7ebd 0850 2a3d 7a2b 00be 4a21 353e
000000c0: ceb2 0ebe ccaf 8e3e 4e90 593e 4e38 083e
000000d0: b8d4 873d 5d94 4cbd 88c9 7d3c a62a b6bf
000000e0: e088 653d dc2e 5f3c 08ba cc3e f258 733c
000000f0: fd06 f5bc a07a d4bd cc48 b8bd 2926 fbbd
00000100: ee93 d0bd 6208 44bd cc19 da3e 769a c83d
00000110: 128d b43e 4102 ea3c 9ca4 61bd 9884 ae3e
00000120: 53f7 873d 4a28 623e 85cd 58be 2431 73bd
00000130: 3ca5 8fbe bc71 e23d f65e 09bb 69cd b03d
00000140: bc25 79be 64fa b9be 1597 00be 20b5 97bf
00000150: cd5c 273e 512e f7bc 6941 5b3e 0454 2fbf
00000160: 8333 3fbf dfc7 303e e44d c5be 1e5e 1f3f
00000170: d41e 6b3e 0562 c7bd c457 bbbe 7e5f a1be
00000180: d01f 15bf 5887 6fbe e38d 3c3e 0506 e43d
00000190: 3765 0abf e4b5 2ebe 4943 eb3d 1461 05bf
000001a0: c108 993e 4f46 3fbf d0b0 393e e5eb 983e
000001b0: cb83 cebe 7dde 07bf 4324 79be 5355 6fbe
000001c0: 9c31 50be 0f69 30be 106c 4d3e f7ff 4b3d
000001d0: 5aef 863e 8452 58bd 525b 813e 11e8 623d
000001e0: 7909 c23d ae61 203e d781 82be d264 a4be
000001f0: ccab aebe 20e4 073f 0392 aabc 305c 8b3e
00000200: 4765 bfbe a565 b7bd 0094 bfbe 3a29 7c3e
00000210: 84c0 f6bd be4f db3d f5c9 13be b858 b3be
00000220: 18ea a93e f558 193f 561d ea3e 4a66 87be
00000230: 90e6 963e 4255 b8bd 216f 5f3e 891c 2bbd
00000240: 875c c13e 4c6c b0be d971 7ebe 0344 2f3e
00000250: 1b98 ffbe 541b e63e 10ee 0dbe 42d0 bf3e
00000260: d8c4 903e 2a9b 8ebe 03b9 12be 6400 383e
00000270: 1226 843e f432 3cbe fabc 10bf 2545 36bf
00000280: 85be b1be ab27 203e 3475 c93e 8036 acbe
00000290: 42e9 4ebe 8503 723e cfe4 3abc 003e 0d3d
000002a0: 0668 ce3e 962f 613e d65c 833e b527 8c3e
000002b0: 8747 0bbf 1fd3 adbd 9a8f 513e 8079 ff3c
000002c0: 551e 343e 02f5 d83e 1d24 943c adf4 173e
000002d0: 155b 1c3e 93f7 f23e f153 39be 871e 23be
000002e0: 49a0 4dbd 4661 14be b6eb 2dbd 76ff 0e3d
000002f0: bae6 123e e9e7 81bd 1873 183e c68f c8bd
00000300: 6c4d 90bd e847 87be 8c58 263e 1f73 c6bf
00000310: e450 d1be f67b fe3d e7f3 83bd f838 82bd
00000320: 0372 93bd 3673 143e c4fb 423e 5b5f e13d
00000330: b530 a03e 6b86 9fbd ea9c aabe 5c1a 953e
00000340: dc2a 33bd 2e73 1a3f 5793 52be 4c78 7a3c
00000350: 1754 423e 6432 e03e 4461 efbd 7861 a3be
00000360: 524a 603c af4f 27be bd9b d6bc 5849 563c
00000370: af7e 233e f0be 273f 0595 8ebd 0528 80bf
00000380: b463 87be 6136 923e 6d57 37be 017d d43d
00000390: 5a9e 08bf 6860 163e 056f 683e a2c5 b3bd
000003a0: e574 ae3e cf2c b83e 8ee2 9fbe a0e1 0fbe
000003b0: a2ec 3bbf e1fe 0c3f 7d62 64be 665c 0f3e
000003c0: e9ba 093e c3e6 ea3e ba36 c7bd 9408 233e
000003d0: 4ebf 843e 7e6c a23e d39b 323e 2117 283f
000003e0: d3e0 613e 7ec3 a43d b380 86be a7f1 923e
000003f0: bb1e 4c3e 018f af3e 5068 18bd 865a 29bf

fc1.bias f4 [64]
0.10540104 0.119140334 0.12673314 0.07473552 0.07468269 0.083546974 0.21923727 0.06639104
0.006142435 0.12926553 0.04363625 0.085359804 0.10670162 0.09693568 0.1468425 0.088066176
0.14847 0.18926103 0.09619525 0.058618095 0.00734312 0.050978675 0.03606921 0.044272408
0.06279839 0.1132935 -0.08202908 0.10906089 0.118215375 -0.008190338 -0.016226918 0.23864162
0.11783342 0.15773429 0.06940487 0.07192639 0.0005351672 0.10242981 -0.02714558 -0.061379127
0.14014968 0.074290246 0.10787564 -0.045158524 0.10802658 0.04308297 0.027177751 0.11720465
0.18536533 0.09817008 0.121987894 -0.065658346 -0.025740948 0.088576175 0.13429122 0.18963552
0.061466616 0.11659548 0.07002423 -0.020044496 0.08602885 -0.018305453 0.08441072 0.0029864511
00000000: 80dc d73d d9ff f33d 55c6 013e f00e 993d
00000010: 3df3 983d ad1a ab3d bc7f 603e 07f8 873d
00000020: 7b46 c93b 2f5e 043e edbb 323d 1fd1 ae3d
00000030: 6186 da3d 3786 c63d e15d 163e 0a5c b43d
00000040: 8508 183e a5cd 413e 0402 c53d 8719 703d
00000050: 8e9e f03b 04cf 503d 4fbd 133d fc56 353d
00000060: 719c 803d 6c06 e83d ddfe a7bd 515b df3d
00000070: e71a f23d c430 06bc 50ee 84bc 785e 743e
00000080: a652 f13d 1985 213e 2424 8e3d 254e 933d
00000090: 764a 0c3a b8c6 d13d 6860 debc ae68 7bbd
000000a0: 6683 0f3e 7c25 983d e7ed dc3d 25f8 38bd
000000b0: 0a3d dd3d c577 303d e0a3 de3c fe08 f03d
000000c0: 69d0 3d3e 650d c93d cad4 f93d e277 86bd
000000d0: aede d2bc 6d67 b53d a383 093e d02f 423e
000000e0: 6bc4 7b3d 9cc9 ee3d dd68 8f3d 5b34 a4bc
000000f0: e52f b03d 51f5 95bc 87df ac3d 56b8 433b

fc2.weight f4 [128, 64]
0.20297404 -0.22556986 -0.41896713 -0.18810557 0.25060087 0.10699698 -0.121723704 -0.0052690674
0.34699148 -0.09699006 0.10370504 0.06782656 0.23337856 0.3215192 -0.25163224 0.014566718
-0.21925633 0.097620174 -0.43393612 0.07800159 -0.20381062 -0.40109253 0.2168141 0.25371724
-0.42795733 -0.6164765 0.25894302 0.080160856 -0.41736245 0.13432363 -0.28727314 -0.3113024
0.14196435 0.21128441 0.015870947 0.07521264 0.36905268 0.16628464 -0.043053783 -0.1585911
0.08403477 -0.017544294 -0.08693695 0.3184237 -0.0385683 0.1698843 0.06251559 0.013389841
0.100731276 -0.023142071 -0.05115849 0.018439557 -0.40575945 -0.15322752 -0.4125435 -0.37162662
-0.107466154 -0.22797409 0.17414226 -0.06436521 -0.09835504 -0.0014917925 -0.030613739 0.021294327
-0.23397624 0.36590436 0.15388471 -0.1715969 -0.10336646 0.07237078 -0.46267977 -0.15528226
0.32092124 0.08344057 0.0315287 -0.31822205 -0.18920907 0.17590092 0.21750933 -0.13658455
-0.33930346 -0.2683155 -0.41145664 0.025705738 0.0013252968 -0.31741875 0.15044025 0.2562327
0.07904261 -0.27682698 -0.07805675 -0.04670197 0.23796874 -0.48425302 0.11311222 0.112585604
0.38337886 0.2694073 -0.10741484 -0.060318977 -0.055815566 0.15253116 -0.16248982 0.20322482
-0.14967318 0.3502018 0.24700546 -0.14707738 0.21365479 -0.36028963 0.23244563 -0.13266525
0.3645681 0.32953677 0.27547988 -0.17822498 -0.6782563 0.27860346 0.21383151 0.16636008
0.24681544 0.111026935 -0.35415563 -0.23869167 0.32769436 -0.11329816 0.0026198602 -0.08122566
-0.24482857 0.46394506 -0.096462294 0.05501917 0.16535762 0.016785908 0.34185076 0.14125201
0.15900728 -0.11836435 0.18511909 0.20776528 -0.31196007 0.19448002 0.14349076 0.34865564
-0.1078286 -0.37027034 -0.29235047 0.058167007 -0.25075865 -0.4320878 0.039634224 0.33777565
-0.18923007 -0.4259845 0.20040713 -0.32582647 0.2458132 -0.10394245 -0.27354592 -0.05695691
0.2528951 0.38920635 -0.14067806 -0.21404853 0.27455807 -0.24415062 -0.05562924 -0.25538468
0.006105843 -0.10149428 -0.02611211 0.044437554 -0.05378415 -0.27845523 -0.0847923 -0.05815105
0.34592938 0.082467474 -0.0020072483 -0.18077196 -0.20655942 -0.20238596 0.06674824 -0.63355535
-0.10532879 0.03265977 -0.4263808 0.099004224 0.06689027 0.143994 0.47554612 0.3921217
0.34401363 0.2488133 0.36130932 0.13375229 0.21532409 -0.037853893 0.2391649 0.13293655
-0.019513445 -0.17772606 -0.16256753 0.05492149 0.3817544 -0.12300805 0.16370763 -0.3577415
-0.18274994 0.3047111 -0.26825696 -0.025644047 -0.015213038 0.2253379 0.00064651546 -0.10546525
0.5521809 0.16188607 0.09260541 0.13442957 0.32206228 0.07089602 0.22139746 0.045970116
0.14670978 0.025331644 -0.29042166 -0.08574857 -0.36927307 0.11904717 -0.342309 -0.13297404
0.4477522 0.18900621 -0.014128552 -0.0063394886 0.062439576 0.016923055 -0.40161744 0.49891543
-0.8054863 0.31697434 -0.2695452 0.19240865 0.24065495 -0.2581366 -0.3312484 -0.26709574
0.32776284 -0.20040146 0.15140735 -0.026552917 0.15642093 -0.25258616 0.51170087 0.35926816
00000000: 6dd8 4f3e c9fb 66be dc82 d6be bf9e 40be
00000010: c24e 803e 3c21 db3d 474a f9bd 24a8 acbb
00000020: dea8 b13e b9a2 c6bd 4f63 d43d a7e8 8a3d
00000030: cafa 6e3e 2a9e a43e f1d5 80be 3ea9 6e3c
00000040: bb84 60be 16ed c73d e02c debe 4cbf 9f3d
00000050: bbb3 50be 005c cdbe 8404 5e3e 3ae7 813e
00000060: 391d dbbe 67d1 1dbf 2e94 843e 602b a43d
00000070: 88b0 d5be 228c 093e 7715 93be 0763 9fbe
00000080: 1a5f 113e f15a 583e ca03 823c 1609 9a3d
00000090: 79f4 bc3e 8546 2a3e 2a59 30bd b565 22be
000000a0: 6c1a ac3d 0db9 8fbc 000c b2bd 6e08 a33e
000000b0: cbf9 1dbd 26f6 2d3e 2c08 803d 1061 5b3c
000000c0: 334c ce3d 7194 bdbc 918b 51bd 8e0e 973c
000000d0: b4bf cfbe ade7 1cbe e738 d3be d845 bebe
000000e0: 3717 dcbd 0a72 69be 5952 323e e8d1 83bd
000000f0: 5e6e c9bd 4088 c3ba aac9 fabc 7171 ae3c
00000100: 7897 6fbe d157 bb3e f493 1d3e 19b7 2fbe
00000110: cbb1 d3bd 2237 943d 5de4 ecbe 5002 1fbe
00000120: ca4f a43e e4e2 aa3d 3d24 013d 00ee a2be
00000130: 06c0 41be 5f1f 343e c4ba 5e3e d2dc 0bbe
00000140: 2fb9 adbe a660 89be 72aa d2be d794 d23c
00000150: 95b5 ad3a b684 a2be 020d 1a3e ef30 833e
00000160: 18e1 a13d 44bc 8dbe 38dc 9fbd 914a 3fbd
00000170: 14ae 733e 03f0 f7be 61a7 e73d 4893 e63d
00000180: 3c4a c43e c1ef 893e 50fc dbbd 0811 77bd
00000190: dd9e 64bd 2131 1c3e bb63 26be 2b1a 503e
000001a0: ed43 19be a64d b33e 00ef 7c3e 749b 16be
000001b0: 52c8 5a3e e277 b8be 3a06 6e3e 66d9 07be
000001c0: aca8 ba3e 0bb9 a83e b30b 8d3e 9c80 36be
000001d0: 34a2 2dbf 1da5 8e3e a6f6 5a3e 4c5a 2a3e
000001e0: 30bd 7c3e 1762 e33d e353 b5be 976b 74be
000001f0: 8ec7 a73e de08 e8bd f6b1 2b3b a459 a6bd
00000200: 57b4 7abe 358a ed3e 068e c5bd c85b 613d
00000210: 8253 293e 9a82 893c 1007 af3e 5ea4 103e
00000220: ced2 223e 0269 f2bd dc8f 3d3e 6cc0 543e
00000230: 3bb9 9fbe c525 473e 3eef 123e fe82 b23e
00000240: 3ed5 dcbd 1394 bdbe f6ae 95be 8740 6e3d
00000250: 7063 80be 9d3a ddbe 7f57 223d eef0 ac3e
00000260: 87c5 41be a41a dabe 8737 4d3e bad2 a6be
00000270: 75b6 7b3e c7df d4bd 360e 8cbe a64b 69bd
00000280: 777b 813e 0e46 c73e e90d 10be 8a2f 5bbe
00000290: e092 8c3e 9f02 7abe 7cdb 63bd c8c1 82be
000002a0: 8613 c83b 3cdc cfbd 10e9 d5bc 2704 363d
000002b0: c54c 5cbd af91 8ebe 96a7 adbd cc2f 6ebd
000002c0: a81d b13e b5e4 a83d 0a8c 03bb 491c 39be
000002d0: 5084 53be 443e 4fbe 4db3 883d af30 22bf
000002e0: 9fb6 d7bd 40c6 053d 964e dabe bac2 ca3d
000002f0: c4fd 883d 2a73 133e c87a f33e 2dc4 c83e
00000300: 8e22 b03e eac8 7e3e 89fd b83e 5cf6 083e
00000310: eb7d 5c3e af0c 1bbd a5e7 743e 8520 083e
00000320: a9da 9fbc d2fd 35be 1a78 26be 5bf5 603d
00000330: 5075 c33e a5eb fbbd f9a2 273e e529 b7be
00000340: cd22 3bbe 1803 9c3e fa58 89be 7713 d2bc
00000350: 1b40 79bc fabe 663e eb7a 293a 2afe d7bd
00000360: ba5b 0d3f 76c5 253e e8a7 bd3d e8a7 093e
00000370: 59e5 a43e ef31 913d 04b6 623e 294b 3c3d
00000380: 173b 163e 4f84 cf3c 26b2 94be f29c afbd
00000390: 5c11 bdbe 01cf f33d 2043 afbe 592a 08be
000003a0: c73f e53e d88a 413e 717b 67bc 7cbb cfbb
000003b0: a4c0 7f3d 38a2 8a3c cda0 cdbe d871 ff3e
000003c0: 5a34 4ebf 764a a23e d401 8abe c606 453e
000003d0: 406e 763e 7b2a 84be 6499 a9be c6c0 88be
000003e0: 88d0 a73e 0a36 4dbe 870a 1b3e 8185 d9bc
000003f0: cf2c 203e f952 81be d4fe 023f fff1 b73e

fc2.bias f4 [128]
-0.02480317 -0.07048204 -0.088684425 -0.04563565 -0.084767036 -0.07022043 -0.0133394385 -0.09195156
-0.0071536805 0.039027188 0.021124206 -0.044981003 0.04960462 -0.06471652 0.032444548 -0.0017928871
0.009335553 -0.0557379 -0.062665634 -0.12916619 0.06241955 -0.034166846 0.1023986 -0.0035041051
-0.016056582 -0.04311064 -0.06225722 0.10330711 0.0036771032 -0.044115067 0.053113956 0.032135352
0.080063604 0.029343026 -0.083519585 0.07936135 0.027685003 0.02390079 -0.032590855 -0.0069220266
0.030287685 0.03477831 0.0386123 -0.04465714 -0.00040624672 -0.0030114981 -0.04028011 0.0
-0.01301444 0.011149203 0.0063320464 -0.05787409 0.10084147 0.094379954 -0.0011347122 -0.017353766
0.04462034 0.0014637462 0.03968918 0.13411307 -0.026539538 0.05899618 -0.021711988 0.0038745112
-0.07238516 -0.09807934 0.06583094 -0.0149016185 0.106759965 0.023404812 -0.011091531 -0.049875755
0.0099158 -0.012396834 0.020145237 0.06480259 -0.045912568 -0.029035375 0.026857084 0.045270324
-0.028779 0.011390526 0.057571165 -0.018874113 -0.0016854261 0.034229685 0.05864356 0.025778556
0.05653334 0.074546546 -0.011160695 -0.037603084 0.03885362 -0.08572294 -0.07800552 0.028554607
0.007177761 0.0074282167 -0.027297683 0.03404159 0.07034402 0.025863117 -0.053928304 -0.009479758
0.020663893 0.07975915 -0.07484656 0.019254543 0.02018867 0.059571285 0.04237121 -0.043432496
0.011510487 -0.12624753 0.109215796 -0.015341127 -0.0056436528 0.0025084422 0.0027383873 0.08347712
0.011923732 -0.08287618 -0.09656373 -0.0024405594 0.010061005 0.0407677 -0.045412175 0.12948255
00000000: 0430 cbbc e358 90bd 2ea0 b5bd 73ec 3abd
00000010: 579a adbd bbcf 8fbd a98d 5abc 1951 bcbd
00000020: 6c69 eabb f9da 1f3d ac0c ad3c 003e 38bd
00000030: 372e 4b3d 188a 84bd 93e4 043d 4fff eaba
00000040: 26f4 183c 6d4d 64bd d756 80bd 2444 04be
00000050: a4ab 7f3d 89f2 0bbd 5bb6 d13d 21a5 65bb
00000060: 1889 83bc c894 30bd 6d01 7fbd ae92 d33d
00000070: 8efb 703b 00b2 34bd 058e 593d 5ca0 033d
00000080: 63f8 a33d c960 f03c 510c abbd 3488 a23d
00000090: a9cb e23c 97cb c33c fd7d 05bd 2bd2 e2bb
000000a0: e11d f83c b473 0e3d ee27 1e3d 68ea 36bd
000000b0: 83fd d4b9 8e5c 45bb c2fc 24bd 0000 0000
000000c0: 853a 55bc 26ab 363c 0e7d cf3b 620d 6dbd
000000d0: f985 ce3d 474a c13d a0ba 94ba 7c29 8ebc
000000e0: d1c3 363d 2cdb bf3a 1f91 223d f054 093e
000000f0: 7269 d9bc faa5 713d 57dd b1bc 83eb 7d3b
00000100: ac3e 94bd d2dd c8bd 5fd2 863d eb25 74bc
00000110: f8a4 da3d 73bb bf3c 41b9 35bc 854a 4cbd
00000120: e175 223c 171c 4bbc a007 a53c 38b7 843d
00000130: d10e 3cbd 98db edbc 6303 dc3c 606d 393d
00000140: f0c1 ebbc 549f 3a3c becf 6b3d e29d 9abc
00000150: 84e9 dcba 6d34 0c3d 3b34 703d 8d2d d33c
00000160: 818f 673d dcab 983d 59db 36bc b105 1abd
00000170: f924 1f3d 828f afbd 5cc1 9fbd 5aeb e93c
00000180: 6c33 eb3b 6668 f33b 649f dfbc 326f 0b3d
00000190: 8710 903d e3de d33c ede3 5cbd fd50 1bbc
000001a0: 5347 a93c c458 a33d 2749 99bd b4bb 9d3c
000001b0: b662 a53c 0501 743d 6f8d 2d3d 46e6 31bd
000001c0: 7b96 3c3c 0847 01be 88ac df3d 5a59 7bbc
000001d0: 64ee b8bb ad64 243b 8476 333b 0df6 aa3d
000001e0: c25b 433c fdba a9bd 34c3 c5bd cbf1 1fbb
000001f0: ead6 243c 08fc 263d 1e02 3abd 1397 043e

fc3.weight f4 [64, 128]
-0.5536581 0.24680421 -0.37836656 0.06576812 0.02356415 -0.2767303 -0.1775885 0.15304418
-0.21834907 0.19542117 0.2982097 0.03653662 0.26339132 -0.21912391 -0.23774515 -0.19474603
-0.3767313 -0.053814318 0.29469895 0.09710087 -0.13433146 0.06424931 -0.013748814 -0.22209945
-0.007626927 0.0813768 -0.05270554 0.25402212 0.2210429 0.02988341 0.17274947 -0.34749922
0.058469437 0.17447695 0.11473425 0.24944277 0.5093093 0.114077955 -0.9968429 -0.39888293
0.20017207 0.0255592 0.031944774 0.012183726 -0.14584702 0.007940927 -0.47790602 -0.103398144
-0.1801955 0.05121683 -0.27829525 0.008594139 0.01169459 0.10262243 0.20154718 -0.055454377
0.12724462 0.044525083 -0.2827834 0.24846575 0.09666968 0.13531038 -0.07239186 -0.13884395
0.33864784 -0.0013805346 -0.050727196 -0.63304466 0.3192549 -0.22733834 -0.3239677 -0.29767677
0.16677245 -0.0063675037 -0.00043143227 0.42868525 -0.049351197 0.14264072 0.014627761 -0.13738249
-0.26867685 0.1895581 0.16994448 -0.28386396 -0.28413242 0.002763506 0.067192934 -0.27718535
0.0857316 0.19682269 -0.44109875 -0.014459278 0.06728819 -0.12687488 0.21423212 -0.24215052
0.32690296 0.23712589 -0.23542641 0.12890132 -0.06983933 -0.4555311 0.11052648 -0.35354614
-0.26641104 0.07976328 -0.17451368 0.1815976 0.3153549 0.06648377 -0.062601015 -0.3913206
0.050068114 0.21006715 0.28862593 0.04511762 0.0932551 0.13446428 -0.31358197 0.25025135
0.089532025 -0.04516095 -0.28234214 0.30886045 -0.123758994 0.2756708 0.024064263 0.13683242
-0.05442725 -0.08852732 -0.12765916 -0.020099161 -0.15124445 -0.1077918 -0.085667685 0.029029436
-0.3035359 -0.12667052 0.20712982 0.1633112 -0.25955665 0.20345004 -0.13072701 0.25546023
-0.12392437 -0.26515648 -0.01851326 -0.02553514 0.20816214 -0.2675903 -0.095955156 -0.23623462
-0.059185777 0.15922599 -0.057875518 -0.045516532 -0.14981037 -0.07629588 0.3578826 -0.14899822
0.1764518 0.46411487 -0.4632825 0.21689425 0.13930792 -0.34253275 -0.081196845 -0.14248964
-0.19226189 0.21683413 -0.3267081 0.10331807 -0.10028875 -0.3473371 -0.40537655 0.06448769
0.037382904 -0.17278484 -0.45974797 -0.2294642 0.5794053 0.13535385 0.23117693 0.27546042
0.12945838 -0.50911707 0.0110368095 0.31001848 -0.20836279 0.5094761 -0.050683413 -0.14636388
-0.084942944 0.2299092 0.026722284 0.10529295 0.12714231 0.0693648 0.24572696 -0.14143617
0.3766947 -0.47774872 0.1606723 -0.10091945 -0.38789114 0.11483782 -0.1279519 0.13535537
-0.018812222 -0.37655804 0.22523756 -0.15731795 0.21727869 0.025402457 0.0531864 -0.327351
0.27942607 0.27503505 0.009963897 -0.07745515 0.35421097 0.40940797 -0.15054072 0.37539232
-0.04107189 0.24647672 -0.03335021 -0.09849787 0.35670227 0.50090057 0.22005722 0.14825176
0.13760944 0.31152174 0.25517017 0.23395932 -0.05665452 0.33054483 -0.1482056 -0.24232692
-0.062853806 -0.110909075 0.26346356 -0.14331746 0.21445382 0.08543996 0.027325405 -0.10779853
-0.12800735 0.46741465 0.19210343 -0.14662139 -0.15311533 0.12972316 -0.060269035 0.17161728
00000000: 8abc 0dbf 3eba 7c3e 43b9 c1be 70b1 863d
00000010: 9b09 c13c 98af 8dbe c2d9 35be 9db7 1c3e
00000020: e696 5fbe 7d1c 483e f1ae 983e 6ca7 153d
00000030: 3adb 863e 0562 60be 7773 73be 816b 47be
00000040: ede2 c0be 676c 5cbd c8e2 963e d2dc c63d
00000050: 308e 09be 2495 833d b542 61bc 0a6e 63be
00000060: 4deb f9bb e1a8 a63d c4e1 57bd 300f 823e
00000070: 1259 623e 0ece f43c 3de5 303e 6beb b1be
00000080: a67d 6f3d 16aa 323e caf9 ea3d ed6d 7f3e
00000090: 1862 023f b4a1 e93d 1931 7fbf 623a ccbe
000000a0: e8f9 4c3e 8761 d13c 86d8 023d 409e 473c
000000b0: ec58 15be a91a 023c 19b0 f4be 68c2 d3bd
000000c0: 2b85 38be bdc8 513d b77c 8ebe 6ece 0c3c
000000d0: aa9a 3f3c b52b d23d 6262 4e3e 2124 63bd
000000e0: 6a4c 023e ef5f 363d fcc8 90be ce6d 7e3e
000000f0: c1fa c53d ce8e 0a3e 2f42 94bd 1c2d 0ebe
00000100: 4063 ad3e 0ef3 b4ba 52c7 4fbd 370f 22bf
00000110: 6175 a33e 62cb 68be 18df a5be 1769 98be
00000120: 66c6 2a3e 7ea6 d0bb dc31 e2b9 a27c db3e
00000130: 7b24 4abd 6910 123e 47a9 6f3c ffad 0cbe
00000140: 0390 89be 851b 423e ed05 2e3e 9e56 91be
00000150: ce79 91be f01b 353b 739c 893d 3deb 8dbe
00000160: 0d94 af3d e38b 493e b2d7 e1be 9ce6 6cbc
00000170: 64ce 893d 7deb 01be aa5f 5b3e 4ef6 77be
00000180: d35f a73e 21d1 723e 9f13 71be b5fe 033e
00000190: ec07 8fbd 5f3b e9be b55b e23d 0004 b5be
000001a0: 0767 88be ee5a a33d b7b3 32be b9f4 393e
000001b0: 3376 a13e a528 883d f634 80bd 2c5b c8be
000001c0: 3914 4d3d d81b 573e c7c6 933e 41cd 383d
000001d0: 88fc be3d 01b1 093e d18d a0be f220 803e
000001e0: 915c b73d b0fa 38bd 268f 90be f522 9e3e
000001f0: 5b75 fdbd b924 8d3e 6b22 c53c cc1d 0c3e
00000200: 1cef 5ebd d04d b5bd 15b9 02be ffa6 a4bc
00000210: d3df 1abe f2c1 dcbd 8a72 afbd 24cf ed3c
00000220: 0f69 9bbe ebb5 01be d719 543e 0d3b 273e
00000230: 9ce4 84be 3555 503e 4ddd 05be afcb 823e
00000240: 0fcc fdbd 97c2 87be 1fa9 97bc 122f d1bc
00000250: 7528 553e 9901 89be 2384 c4bd 7de7 71be
00000260: c96c 72bd 230c 233e e10e 6dbd 8b6f 3abd
00000270: e467 19be 0441 9cbd 633c b73e fd92 18be
00000280: c8af 343e 77a0 ed3e 5d33 edbe 8719 5e3e
00000290: bca6 0e3e 7460 afbe 884a a6bd cee8 11be
000002a0: 4de0 44be c409 5e3e 4946 a7be 6d98 d33d
000002b0: 3064 cdbd 2bd6 b1be 848d cfbe 1f12 843d
000002c0: d11e 193d 82ee 30be 1664 ebbe aaf8 6abe
000002d0: e853 143f 339a 0a3e a5b9 6c3e 2609 8d3e
000002e0: bd90 043e 7f55 02bf bcd3 343c beba 9e3e
000002f0: 0e5d 55be 076d 023f 6999 4fbd 6ae0 15be
00000300: 91f6 adbd 516d 6b3e b1e8 da3c d5a3 d73d
00000310: 9831 023e 220f 8e3d d99f 7b3e a5d4 10be
00000320: 21de c03e 7b9b f4be 4887 243e dbae cebd
00000330: ab99 c6be 1730 eb3d d305 03be 999a 0a3e
00000340: 171c 9abc 37cc c0be ada4 663e f517 21be
00000350: 4e7e 5e3e d018 d03c fcd9 593d 8d9a a7be
00000360: ef10 8f3e 65d1 8c3e 9d3f 233c cea0 9ebd
00000370: 245b b53e ec9d d13e 5927 1abe 6c33 c03e
00000380: 003b 28bd 6564 7c3e 3b9a 08bd 40b9 c9bd
00000390: aea1 b63e 053b 003f ae56 613e 4fcf 173e
000003a0: 7de9 0c3e c77f 9f3e aaa5 823e 0893 6f3e
000003b0: 920e 68bd 2c3d a93e 35c3 17be 8c24 78be
000003c0: 7fb9 80bd 4c24 e3bd b2e4 863e d0c1 12be
000003d0: c899 5b3e 25fb ae3d 87d9 df3c 7ac5 dcbd
000003e0: 5c14 03be f950 ef3e c3b6 443e eb23 16be
000003f0: 44ca 1cbe 26d6 043e aadc 76bd 71bc 2f3e

fc3.bias f4 [64]
0.017546264 0.17932813 0.07013911 0.05204214 -0.01838321 0.058251258 0.0817589 0.19664319
0.038136166 -0.10922853 0.0043817973 -0.018604942 -0.15855746 0.12533161 0.10014239 0.3317598
-0.089734755 0.20445116 -0.053852066 0.022939067 -0.09404288 -0.015263235 -0.08594165 0.18297088
0.17543018 0.1430457 0.11322219 0.063477054 -0.124756515 -0.021644855 -0.082462564 0.08785455
0.123247325 -0.007917233 0.10427402 0.1388771 0.073182136 0.12629296 -0.046215586 -0.04835933
-0.040482238 -0.11444441 0.1321631 -0.055392828 -0.10268761 0.11664019 0.12047897 -0.031231927
0.041565455 -0.071531184 -0.08862963 0.15108743 0.11383754 0.070887394 -0.07263281 0.17555286
0.22300096 0.13814847 0.056948796 0.027403126 0.019178523 0.02240249 0.018179238 0.13258255
00000000: 2fbd 8f3c cba1 373e 18a5 8f3d 242a 553d
00000010: 6398 96bc df98 6e3d 3671 a73d d55c 493e
00000020: ab34 1c3d 35b3 dfbd 2e95 8f3b 6469 98bc
00000030: e35c 22be ee56 003e 7417 cd3d 6cdc a93e
00000040: dbc6 b7bd a55b 513e fc93 5cbd b6ea bb3c
00000050: 8e99 c0bd a612 7abc 2d02 b0bd b85c 3b3e
00000060: f8a3 333e 927a 123e 09e1 e73d 4200 823d
00000070: 5880 ffbd 8d50 b1bc 22e2 a8bd 16ed b33d
00000080: 1869 fc3d 48b7 01bc 9e8d d53d cc35 0e3e
00000090: 84e0 953d f152 013e 8e4c 3dbd 6f14 46bd
000000a0: b4d0 25bd d561 eabd c455 073e 97e3 62bd
000000b0: e24d d2bd 0de1 ee3d aebd f63d 19da ffbc
000000c0: 8a40 2a3d f17e 92bd 7483 b5bd aab6 1a3e
000000d0: a823 e93d 692d 913d 83c0 94bd 21c4 333e
000000e0: 5d5a 643e cb76 0d3e 2443 693d 857c e03c
000000f0: 471c 9d3c 6d85 b73c a0ec 943c b8c3 073e

fc4.weight f4 [80, 64]
-0.28766868 0.14736547 0.22226124 -0.09153224 -0.5939719 0.048344232 0.15993327 0.15972997
-0.04647006 -0.18917711 -0.001386183 0.048920795 -0.3332228 -0.21854661 0.25821558 -0.07851749
-1.0040888 -0.09962081 0.09156328 0.011488241 0.30367664 0.16928525 0.1935045 -1.0306845
0.12349399 -0.33096755 -0.058713656 0.26425278 0.0996105 -0.6554182 -0.1331422 -0.057588305
-0.3139943 -0.089140795 0.15974906 -0.0023476179 -0.28023842 -0.6110348 -0.9553252 -0.09020816
-0.08663913 -0.37080553 0.12701063 0.061265808 -0.06711764 -0.65220803 0.26061282 0.35260883
0.07132223 0.085875 0.07136074 -0.0176098 0.052066807 0.016361635 0.24162123 -0.0664648
0.18977001 -0.03921536 0.3054123 -0.095870815 0.19976561 0.05851962 -0.18493703 0.23216927
0.35029322 -0.2158428 0.18813181 -0.5716233 0.3765756 -0.03070933 0.046967007 -0.085538775
-0.12633248 -0.30914307 0.0235763 0.06520846 0.13055362 -0.105718285 -0.3530791 -0.8911455
-0.4261113 -0.277718 0.14112149 -0.047609586 -0.17792621 -0.23957196 0.43068954 0.15313464
0.35653526 0.05526661 -0.08692801 0.10159397 0.037963804 0.15309228 -0.5389994 -0.20222528
-0.19389641 -0.114658035 0.07835387 0.19590719 -0.054028213 0.20282248 0.050038747 -0.13794477
0.24329008 -0.2580209 -0.053977918 -0.010230884 0.18232065 -0.33530235 0.25978175 -0.18634863
0.28344747 -0.16618556 -0.27988443 -0.5529923 -0.05321699 0.17478146 -0.20105113 0.048766986
0.2188554 -0.35601065 0.104682304 0.18332271 0.22495143 -0.21714802 -0.5308409 -0.2805711
-0.006131382 0.22350124 -0.48090756 0.26044586 -0.04753818 -0.12828249 -0.09043851 0.26563764
-1.2771996 -0.1873231 0.21613646 -0.028705768 -0.6898851 0.1763042 0.206562 0.05949983
0.20203523 -0.015803069 -0.1715273 -0.26303282 0.1484763 -0.061743386 -0.5094192 0.1571384
-0.0866326 -0.09385347 -0.26316196 0.24284583 0.18564238 0.25511193 0.15404995 0.074870124
0.096185826 -0.5899303 0.22642599 0.039513104 -0.09905299 -0.14695261 0.30016053 -0.21001701
0.11967964 -0.042426873 -0.2836438 0.03543951 0.039860435 0.071987085 -0.02987425 0.22626303
-0.539582 -0.023190739 -0.16721205 0.072832614 -0.33229986 -0.09572893 0.00075607 0.08247388
-1.1772448 -1.4672439 0.17850879 0.20067234 0.050420772 0.16497223 -1.1396283 -0.11071401
0.21790002 0.0426146 -0.13431422 0.15757796 -0.3227266 0.005265086 -0.019103948 -0.002171174
-0.20632412 -0.03688792 -0.3571332 -0.019849034 0.20814273 0.19203627 0.25802898 0.34043428
-0.19563203 -0.6101573 -0.58751434 -0.007744913 0.009676563 -0.37575907 0.1756293 -0.171941
0.16965747 0.12290655 -0.18300898 0.098136865 0.08336821 -0.09021479 0.27793524 0.15694939
0.4913122 0.13169548 0.24897596 -0.31951624 -0.16001546 -0.46058753 -0.04401141 0.07420316
-0.610081 -0.38862118 0.29928398 0.15055986 0.17312099 0.27613273 0.035956267 0.029867176
-0.054541025 0.03874557 -0.13235366 -0.059552446 -0.20991775 -0.3923351 -0.4793994 -0.14356335
-0.45747426 -0.45116392 0.10425376 0.059032172 -0.3083072 0.12925534 -0.08735143 0.052766174
00000000: 4f49 93be f9e6 163e 7398 633e 4175 bbbd
00000010: 8b0e 18bf 9a04 463d 8cc5 233e 4190 233e
00000020: 6457 3ebd a5b7 41be 95b0 b5ba 2c61 483d
00000030: 2e9c aabe afca 5fbe d534 843e c7cd a0bd
00000040: fb85 80bf ff05 ccbd 8785 bb3d 2d39 3c3c
00000050: 817b 9b3e 1d59 2d3e 0b26 463e 78ed 83bf
00000060: 6bea fc3d 9474 a9be bb7d 70bd 244c 873e
00000070: 9700 cc3d 7dc9 27bf 6e56 08be b7e1 6bbd
00000080: dcc3 a0be 738f b6bd 4295 233e 7eda 19bb
00000090: 697b 8fbe c76c 1cbf 3190 74bf 0ebf b8bd
000000a0: db6f b1bd 39da bdbe 130f 023e dbf1 7a3d
000000b0: f974 89bd 1bf7 26bf 0b6f 853e 2589 b43e
000000c0: 6411 923d 3bdf af3d 9425 923d 6d42 90bc
000000d0: 0144 553d d608 863c 8e6b 773e b21e 88bd
000000e0: 1253 423e 49a0 20bd 005f 9c3e eb57 c4bd
000000f0: 5b8f 4c3e 45b2 6f3d 2260 3dbe c8bd 6d3e
00000100: a259 b33e e505 5dbe a0a5 403e e855 12bf
00000110: 84ce c03e 2292 fbbc 7a60 403d f42e afbd
00000120: 4d5d 01be 0048 9ebe 1623 c13c 038c 853d
00000130: d9af 053e d482 d8bd c9c6 b4be 1d22 64bf
00000140: 432b dabe 0e31 8ebe 2782 103e 4502 43bd
00000150: 4a32 36be 5a52 75be 5783 dc3e 54cf 1c3e
00000160: ca8b b63e 3e5f 623d 5007 b2bd 8010 d03d
00000170: ef7f 1b3d 39c4 1c3e ddfb 09bf 2514 4fbe
00000180: c88c 46be d5d1 eabd fe77 a03d e59b 483e
00000190: b04c 5dbd b2b0 4f3e 6ef5 4c3d 6541 0dbe
000001a0: 0921 793e 511b 84be f317 5dbd 709f 27bc
000001b0: 44b2 3a3e c0ac abbe 1d02 853e 2dd2 3ebe
000001c0: 0720 913e 8c2c 2abe 034d 8fbe e790 0dbf
000001d0: 0ffa 59bd e9f9 323e 59e0 4dbe e4bf 473d
000001e0: a11b 603e 0747 b6be ad63 d63d f3b8 3b3e
000001f0: ab59 663e 0d5c 5ebe 30e5 07bf 04a7 8fbe
00000200: c3e9 c8bb 82dd 643e 8439 f6be 2959 853e
00000210: 65b7 42bd 7c5c 03be d337 b9bd a801 883e
00000220: 477b a3bf a0d1 3fbe e052 5d3e 5c28 ebbc
00000230: 4f9c 30bf 1789 343e fd84 533e 18b6 733d
00000240: 53e2 4e3e 7075 81bc daa4 2fbe 3dac 86be
00000250: 2c0a 183e a2e6 7cbd 4c69 02bf e4e8 203e
00000260: 6f6c b1bd 4036 c0bd 2abd 86be 94ac 783e
00000270: 0919 3e3e 089e 823e 45bf 1d3e 8255 993d
00000280: 13fd c43d ac05 17bf 37dc 673e 7ed8 213d
00000290: 4bdc cabd bf7a 16be a4ae 993e b30e 57be
000002a0: 991a f53d cdc7 2dbd c339 91be 0529 113d
000002b0: b244 233d f76d 933d d8ba f4bc 7fb1 673e
000002c0: 0c22 0abf 81fa bdbc a339 2bbe 4429 953d
000002d0: 3523 aabe 870d c4bd 0033 463a 11e8 a83d
000002e0: f5af 96bf a6ce bbbf 02cb 363e 0d7d 4d3e
000002f0: 0386 4e3d 7bee 283e 57df 91bf 07be e2bd
00000300: 2f21 5f3e a68c 2e3d ab89 09be 1e5c 213e
00000310: 6c3c a5be be86 ac3b e27f 9cbc 414a 0ebb
00000320: a146 53be ca17 17bd 2ada b6be 719a a2bc
00000330: 5e23 553e 28a5 443e 601c 843e 674d ae3e
00000340: c353 48be 4533 1cbf 5767 16bf 0ac9 fdbb
00000350: 728a 1e3c 7e63 c0be 2bd8 333e 4d11 30be
00000360: b0ba 2d3e 6eb6 fb3d b566 3bbe fbfb c83d
00000370: f4bc aa3d 88c2 b8bd 874d 8e3e 57b7 203e
00000380: 468d fb3e 2edb 063e 8ef3 7e3e a297 a3be
00000390: 18db 23be 21d2 ebbe 4f45 34bd d4f7 973d
000003a0: 452e 1cbf 5bf9 c6be c03b 993e 5d2c 1a3e
000003b0: a146 313e 4561 8d3e e146 133d 02ac f43c
000003c0: 6966 5fbd adb3 1e3d b887 07be 44ed 73bd
000003d0: aef4 56be 25e0 c8be d773 f5be 4502 13be
000003e0: 113a eabe f5fe e6be ff82 d53d b8cb 713d
000003f0: 71da 9dbe 835b 043e 4ee5 b2bd 5821 583d

fc4.bias f4 [80]
0.054582197 0.014502983 0.054874443 -0.008323736 -0.06945898 0.046667397 -0.1442299 -0.11173575
-0.15268825 -0.063732885 -0.020238848 0.016976276 0.11009795 0.099747606 -0.018473474 -0.099360235
0.04552592 -0.021723624 -0.08932403 -0.029076818 -0.0958735 -0.026344674 0.115943894 -0.09049103
0.0570816 -0.08933424 -0.14219768 -0.09354424 -0.11145134 0.096425146 -0.09422089 -0.098025925
0.09330449 -0.14782214 -0.08511398 -0.10229007 -0.08313359 -0.09403097 -0.09159003 -0.10108472
-0.08563583 0.02767816 0.17459695 0.11854602 -0.11560624 -0.10481983 -0.0054392936 -0.16835135
-0.08445816 -0.09636634 -0.10670389 -0.12134844 -0.0042481753 0.012045953 -0.0034163664 0.05514493
-0.09378201 -0.08853224 -0.09689383 0.113008894 -0.09697898 -0.027182551 -0.06832482 -0.007520491
-0.0803157 -0.036277507 0.0014203757 -0.087035745 0.029775955 -0.084011 0.030176027 -0.108357206
0.10135554 -0.083390325 -0.08787883 0.034031507 0.004732245 0.09257071 -0.053614523 -0.01813287
00000000: 9591 5f3d eb9d 6d3c 06c4 603d 4760 08bc
00000010: 8240 8ebd 5026 3f3d 01b1 13be b7d5 e4bd
00000020: 4f5a 1cbe 6386 82bd f1cb a5bc d511 8b3c
00000030: 097b e13d 7948 cc3d af55 97bc 617d cbbd
00000040: 6379 3a3d bef5 b1bc 84ef b6bd 8232 eebc
00000050: 5359 c4bd c9d0 d7bc fe73 ed3d 5c53 b9bd
00000060: 65ce 693d dff4 b6bd 459c 11be 1f94 bfbd
00000070: 9a40 e4bd 8c7a c53d e2f6 c0bd d1c1 c8bd
00000080: 6d16 bf3d b05e 17be 3d50 aebd 757d d1bd
00000090: f241 aabd 4f93 c0bd 8e93 bbbd 8105 cfbd
000000a0: d761 afbd 4fbd e23c 8bc9 323e 41c8 f23d
000000b0: f7c2 ecbd c7ab d6bd 1a3c b2bb 4c64 2cbe
000000c0: 66f8 acbd b75b c5bd 9287 dabd 8885 f8bd
000000d0: 4734 8bbb 645c 453c 1ee5 5fbb a6df 613d
000000e0: c810 c0bd 6450 b5bd 4670 c6bd 3571 e73d
000000f0: ea9c c6bd f1ad debc e2ed 8bbd 736e f6bb
00000100: 8f7c a4bd b997 14bd e62b ba3a cc3f b2bd
00000110: b4ec f33c f60d acbd b733 f73c 62ea ddbd
00000120: 7e93 cf3d 8cc8 aabd d1f9 b3bd 9f64 0b3d
00000130: f310 9b3b b695 bd3d e79a 5bbd 628b 94bc

exp_avg f4 [64, 28]
-0.010488908 0.0060570925 0.00046794603 -0.0077540986 0.0012158082 -0.013887506 -0.0022863976 0.00024805233
-0.0022693812 -0.0015835376 0.0001988966 0.0036521698 0.0054217335 3.8104579e-06 0.0 -0.010216805
-0.003912298 -0.0036432873 -0.0097966045 -0.003313127 -0.004255903 -0.00080168585 -0.00029652848 -0.0007006627
0.00054408214 -0.003960385 -0.009822753 -0.0018124185 -0.004494186 -0.010245218 0.010008071 0.020290306
-5.778034e-06 -0.0027265549 0.0073800026 -0.00918682 0.01040279 -0.00055026024 0.0005759213 0.014957961
-0.005308473 8.630262e-06 0.0 0.018552694 0.0022536123 0.0034047486 0.024286715 0.0015060554
0.012184111 -0.0009901678 -0.0040004337 0.0024118053 -0.0007640372 0.005465606 0.013674314 0.0038534377
0.00041441998 0.0038142602 -0.012239258 0.00034041447 -0.0031720856 -0.0037221606 0.006948995 -0.0072169616
-0.0025850858 0.0011032161 0.0014553289 -0.00805532 0.0012298144 -7.6177095e-08 0.0 -0.0063139726
-0.022405501 -0.002047193 -0.0139051275 0.0013229384 -0.008231104 -0.006188739 -0.014269381 -0.009762565
-0.0114619285 0.0075337538 0.0051414487 -0.0026654254 0.008719508 0.0042294203 -0.0043106955 -0.00024130825
2.050108e-37 0.00022587572 0.0021900784 0.00958501 0.0036731625 -0.0020687866 5.0376737e-05 -0.0052587916
6e-45 0.0 0.0 0.008428003 -0.006947328 0.003453787 0.0072386437 4.469614e-08
-0.0022492055 -5.763831e-06 -0.012130163 -0.0018271978 0.001971859 0.0032813153 0.00835887 0.0030038708
0.010281328 0.003103818 -0.012001558 0.0072328057 -0.0019835467 0.015377701 -0.003843025 0.005879789
-0.0033776686 -0.0056201983 -0.0026523739 0.0013372113 -0.00045908403 -9.504876e-06 0.0 0.0062152096
-0.0018757709 -0.005289609 0.011979612 0.011172023 -0.011660705 0.0012983418 -0.011265263 -0.0005947244
0.0056898845 0.0023168952 0.006939749 0.00039160732 -0.001514555 -0.0082781175 -0.017042063 -0.0007966823
9.1698246e-05 0.0013903433 -0.0019394406 -0.0005418929 0.0004162217 0.0007129919 -0.0030957856 -0.026323304
0.0018411458 4.4254293e-26 0.0 -0.026872734 -0.009367329 -0.004313344 -0.010484616 0.0006137172
-0.009515338 -0.003399869 0.005304286 0.0034752744 0.00037885268 -0.0023068772 -0.01640592 -0.0028602355
-0.0010975878 -0.00043885564 0.008974694 -0.007481709 6e-45 -0.015938912 0.010944459 -0.009843612
-0.00914755 0.0016728945 0.0062673986 0.01761299 -0.0016184408 7.317872e-06 0.0 0.0041563534
0.012413708 0.001905993 -0.0018903499 0.005274251 0.015400303 -0.002112566 -0.007950436 -0.007698289
-0.018996676 0.009195892 0.011426399 0.0059153372 0.0024868038 -0.014454861 0.008570371 -0.0009902292
-0.0013491977 0.007379437 -0.007746272 -0.00043069464 -0.0012511886 -0.0010678103 2.510481e-05 0.005081297
-0.0077270037 1.552684e-08 0.0 -0.003406981 0.0007336192 0.0031829462 0.00055953476 0.008187877
0.00020099638 -0.00042667674 0.00416094 0.0004163184 -0.006477908 0.0023660425 0.0041311835 0.00041107825
-0.008380424 -0.018939482 0.0054022246 0.016765464 4.628551e-06 -0.012930357 -0.0060747466 0.006611932
0.01009184 -0.004013669 0.0010080931 -0.0002188257 0.0003787446 -6.0138956e-07 0.0 -0.0046690283
-0.0147605045 0.0039817397 0.0032610397 -0.010245591 0.00087068765 -0.0001527442 -0.008206317 0.0012485281
-0.0055110706 -0.008214259 -0.012031136 -0.0042737285 -0.0034562733 -0.008594639 0.0033006305 6e-45
00000000: abd9 2bbc 937a c63b a756 f539 1816 febb
00000010: c15b 9f3a 6c88 63bc 63d7 15bb 050d 8239
00000020: e6b9 14bb b48e cfba e68e 5039 3e59 6f3b
00000030: cca8 b13b 2bb7 7f36 0000 0000 6364 27bc
00000040: bc32 80bb 38c4 6ebb f081 20bc 0c21 59bb
00000050: 1a75 8bbb 3a28 52ba 6177 9bb9 aeac 37ba
00000060: bca0 0e3a 1ec6 81bb 9def 20bc ac8e edba
00000070: f743 93bb 8fdb 27bc e4f8 233c db37 a63c
00000080: efe0 c1b6 00b0 32bb f3d3 f13b 5184 16bc
00000090: 7770 2a3c 573f 10ba 6df9 163a 3c12 753c
000000a0: b3f2 adbb b1ca 1037 0000 0000 d2fb 973c
000000b0: 57b1 133b 3422 5f3b eff4 c63c d566 c53a
000000c0: de9f 473c 85c8 81ba 1216 83bb 610f 1e3b
000000d0: ab49 48ba d418 b33b 3b0a 603c f589 7c3b
000000e0: 8246 d939 abf8 793b 2b87 48bc a879 b239
000000f0: c4e2 4fbb 7eef 73bb 65b4 e33b 437c ecbb
00000100: 8b6a 29bb ca99 903a bcc0 be3a 76fa 03bc
00000110: b931 a13a cd96 a3b3 0000 0000 71e5 cebb
00000120: be8b b7bc 332a 06bb 55d2 63bc 7266 ad3a
00000130: c1db 06bc e8ca cabb 1fca 69bc 2af3 1fbc
00000140: d0ca 3bbc b5dd f63b 9979 a83b 6bae 2ebb
00000150: 44dc 0e3c f396 8a3b bc40 8dbb b107 7db9
00000160: eb85 8b02 0dd9 6c39 6b87 0f3b 720a 1d3c
00000170: 71b9 703b 7b94 07bb 9c4b 5338 f151 acbb
00000180: 0400 0000 0000 0000 0000 0000 9b15 0a3c
00000190: 69a6 e3bb ee58 623b 2532 ed3b edf7 3f33
000001a0: 6867 13bb ee66 c1b6 97bd 46bc 967e efba
000001b0: 4e3a 013b 560b 573b a4f3 083c 97dc 443b
000001c0: 0473 283c 6d69 4b3b 2fa2 44bc 2c01 ed3b
000001d0: 64fe 01bb c1f2 7b3c 43db 7bbb 3fab c03b
000001e0: e05b 5dbb a429 b8bb 73d3 2dbb 5e45 af3a
000001f0: 37b1 f0b9 2277 1fb7 0000 0000 f5a8 cb3b
00000200: 6ddc f5ba 7554 adbb 2246 443c dc0a 373c
00000210: 8b0c 3fbc 1f2d aa3a f091 38bc 47e7 1bba
00000220: 3672 ba3b 0dd7 173b d566 e33b a550 cd39
00000230: 0884 c6ba f1a0 07bc cc9b 8bbc 72d8 50ba
00000240: 1f4e c038 2e3c b63a d434 feba d10d 0eba
00000250: 5538 da39 14e8 3a3a aae2 4abb f8a3 d7bc
00000260: 9a52 f13a fb22 5b15 0000 0000 3524 dcbc
00000270: 6d79 19bc f456 8dbb abc7 2bbc dde1 203a
00000280: 38e6 1bbc 56d0 5ebb 93cf ad3b 6ec1 633b
00000290: bfa0 c639 fa2e 17bb b565 86bc ca72 3bbb
000002a0: efdc 8fba 3516 e6b9 980a 133c 2029 f5bb
000002b0: 0400 0000 5292 82bc 6350 333c 1a47 21bc
000002c0: 9bdf 15bc 0645 db3a c05e cd3b 1e49 903c
000002d0: dd21 d4ba 0b8c f536 0000 0000 0532 883b
000002e0: dd62 4b3c 83d2 f93a 9ec5 f7ba a0d3 ac3b
000002f0: 8d51 7c3c fa72 0abb 8c42 02bc ee41 fcbb
00000300: eb9e 9bbc 5eaa 163c cb35 3b3c 72d5 c13b
00000310: a5f9 223b 15d4 6cbc be6a 0c3c 94ca 81ba
00000320: 90d7 b0ba 34cf f13b 70d4 fdbb dbce e1b9
00000330: ecfe a3ba c5f5 8bba 2b98 d237 0281 a63b
00000340: ce32 fdbb e25f 8532 0000 0000 a847 5fbb
00000350: 5a50 403a fa98 503b bead 123a 7226 063c
00000360: 8ec2 5239 95b3 dfb9 7f58 883b 4f45 da39
00000370: a244 d4bb 9b0f 1b3b e15e 873b fd85 d739
00000380: 0c4e 09bc f926 9bbc 2505 b13b ba57 893c
00000390: f34e 9b36 d9d9 53bc ab0e c7bb e8a8 d83b
000003a0: 3f58 253c 1985 83bb fe21 843a 9474 65b9
000003b0: 3d92 c639 2d6f 21b5 0000 0000 a6fe 98bb
000003c0: 0bd6 71bc 4179 823b 2bb7 553b 20dd 27bc
000003d0: dc3e 643a f529 20b9 ca73 06bc a7a5 a33a
000003e0: 3696 b4bb 1995 06bc 3e1e 45bc a20a 8cbb
000003f0: a582 62bb 87d0 0cbc 644f 583b 0400 0000

exp_avg_sq f4 [64, 28]
0.0024596918 0.002307977 0.00058412435 6.849226e-05 0.00015346606 0.0012742454 0.0011829113 0.00017391724
0.00019170476 0.00015749873 0.0003339957 0.001352959 0.0008632993 1.1187926e-07 0.0 0.0054900805
0.004561699 0.0003922981 0.0043004183 0.0007502896 0.0005603645 0.00016690188 0.000766998 0.00059493375
0.000930328 0.00063437637 0.0037168972 0.00040333826 0.0026347095 0.004004592 0.0042800987 0.00022087504
4.3475447e-05 0.0037032303 0.0012306861 0.00077034964 0.0011146418 0.0006150754 0.00010063152 0.0018797142
0.001715537 3.0025444e-07 0.0 0.011622935 0.0085363295 0.00056719506 0.0076420275 0.00201538
0.002883285 0.0010553403 0.002246308 0.0017189166 0.0018693717 0.00084148097 0.0061699185 0.00027742056
0.0037172646 0.003180111 0.00446757 0.00013518748 0.00018573414 0.0010061982 0.0013704412 0.00031297537
0.0008046124 0.00026980348 0.0013060644 0.0046948637 0.0019399443 2.2325005e-07 0.0 0.012331395
0.008430031 0.0010024041 0.0074145324 0.0004926715 0.0030106406 0.00049436133 0.0016324213 0.0014647539
0.0005976208 0.0006079527 0.005225424 0.00033737582 0.00060190057 0.00026561986 0.004883263 8.691439e-07
6.947757e-08 0.00021123959 0.00021784865 0.0010351448 0.0018441428 0.00019968889 8.2647624e-05 0.0020476999
2.6397815e-08 0.0 0.0 0.005770047 0.0014356312 7.522293e-05 0.0042563793 8.545055e-07
0.004155837 2.0543794e-06 0.0008335802 0.00025256939 0.00015768927 0.00020339205 0.002906796 0.00026984935
0.001386097 0.0032879638 0.0015150094 0.0001081845 0.00028535532 0.0017387153 0.001855549 0.000193854
0.00039849823 0.00032488204 0.000344284 0.0014071898 8.2919185e-05 8.880854e-08 0.0 0.0064564166
0.0037043635 0.0005185383 0.003196441 0.0015214343 0.0015110966 0.0005716385 0.00072544225 0.00012650198
0.0011466267 0.0008475298 0.005002336 0.00037335252 0.0013426434 0.0013648819 0.0017759616 4.7752343e-05
0.00011532667 0.00027859796 0.0006326703 0.00025829172 5.1576924e-05 0.0001750838 0.00026673754 0.0025790134
0.00044881637 1.4785248e-08 0.0 0.004389334 0.0029225955 0.00029310695 0.002860724 7.231628e-05
0.0013775161 0.00021178093 0.0008248607 0.00019228176 0.00024421792 0.00044302113 0.0026678394 0.0002547489
0.005604678 0.0045844265 0.006981988 0.0003507744 8.130455e-07 0.0017875367 0.0032130633 0.00057898083
0.0010112893 0.00073068147 0.0010156238 0.006509328 0.0024492731 2.458942e-07 0.0 0.017905748
0.013172684 0.0006645261 0.013795924 0.0015813197 0.0059337127 0.00075904554 0.002680592 0.0017210556
0.0024423015 0.0013610555 0.009745351 0.0005055185 0.0007794638 0.0039596986 0.0032401548 9.016541e-05
8.011897e-05 0.0017274182 0.0014697198 0.0001970936 0.00054750935 0.0001243386 4.164145e-05 0.0034278985
0.00040150338 6.5501236e-09 0.0 0.008042896 0.0059724087 0.0004871362 0.0051124124 0.0013724781
0.0028638372 0.00035581907 0.0014694585 0.0007772103 0.0013277096 0.0008753169 0.005542437 0.00031980342
0.0007080019 0.0024101555 0.001659949 0.000110088644 1.8092617e-06 0.0010515345 0.0012777997 0.00013946173
0.0004132886 0.00025883273 0.00011556609 0.0016014093 4.5068064e-05 3.9581888e-08 0.0 0.00502473
0.0037472208 0.00039879087 0.0033387067 0.00075342145 0.0016920214 0.0003587242 0.0009830897 0.0005613086
0.00088462286 0.00055315933 0.0035303298 0.0003701808 0.0009404416 0.0013747127 0.00046136166 1.672366e-10
00000000: c832 213b 6e41 173b ec1f 193a 81a3 8f38
00000010: bbeb 2039 9504 a73a eb0b 9b3a 8e5d 3639
00000020: 5b04 4939 3e26 2539 251c af39 c555 b13a
00000030: 094f 623a 4642 f033 0000 0000 22e6 b33b
00000040: 4e7a 953b 5cad cd39 86ea 8c3b 15af 443a
00000050: 6de5 123a 6202 2f39 5d10 493a 54f5 1b3a
00000060: 41e1 733a 474c 263a 3097 733b 2577 d339
00000070: 17ab 2c3b f438 833b 1240 8c3b b19a 6739
00000080: 6859 3638 e5b1 723b f94e a13a 4af1 493a
00000090: 2c19 923a 033d 213a 230a d338 be60 f63a
000000a0: dfdb e03a a832 a134 0000 0000 1f6e 3e3c
000000b0: f6db 0b3c d1af 143a f969 fa3b 7714 043b
000000c0: 7ff5 3c3b 5853 8a3a cb36 133b 454d e13a
000000d0: b505 f53a d596 5c3a 072d ca3b c272 9139
000000e0: 5a9d 733b 6969 503b b264 923b 1dc1 0d39
000000f0: a1c1 4239 69e2 833a 60a0 b33a d816 a439
00000100: a0ec 523a 6974 8d39 4030 ab3a 5fd7 993b
00000110: bb45 fe3a 82b6 6f34 0000 0000 9f09 4a3c
00000120: 1d1e 0a3c 1a63 833a 9bf5 f23b a026 013a
00000130: 2b4e 453b 0798 013a f8f6 d53a fcfc bf3a
00000140: a7a9 1c3a 045f 1f3a 093a ab3b d1e1 b039
00000150: ddc8 1d3a e542 8b39 c703 a03b 1d4f 6935
00000160: b333 9533 3280 5d39 4d6e 6439 b2ad 873a
00000170: 2ab7 f13a 9463 5139 1b53 ad38 b432 063b
00000180: 69c1 e232 0000 0000 0000 0000 aa12 bd3b
00000190: ca2b bc3a 01c1 9d38 1979 8b3b 2c61 6535
000001a0: b02d 883b f8dd 0936 9f84 5a3a 4a6b 8439
000001b0: 6459 2539 a345 5539 f27f 3e3b 917a 8d39
000001c0: b3ad b53a e17a 573b 4893 c63a 1ce1 e238
000001d0: be9b 9539 9be5 e33a e535 f33a 4945 4b39
000001e0: 87ed d039 ee54 aa39 0481 b439 7471 b83a
000001f0: e6e4 ad38 03b7 be33 0000 0000 5990 d33b
00000200: e8c4 723b 84ee 073a 627b 513b dd6a c73a
00000210: fd0f c63a 03da 153a 9b2b 3e3a 9ea5 0439
00000220: 684a 963a c32c 5e3a a3ea a33b 87be c339
00000230: a3fb af3a d6e5 b23a 62c7 e83a b049 4838
00000240: 89db f138 c910 9239 c9d9 253a 546b 8739
00000250: 4d54 5838 b396 3739 e8d8 8b39 aa04 293b
00000260: 1d4f eb39 3502 7e32 0000 0000 67d4 8f3b
00000270: 0489 3f3b 26ac 9939 fc7a 3b3b 82a8 9738
00000280: c58d b43a 8311 5e39 773b 583a 3e9f 4939
00000290: 600a 8039 4a45 e839 ebd6 2e3b d28f 8539
000002a0: 72a7 b73b f538 963b 29c9 e43b 25e8 b739
000002b0: 1040 5a35 c74b ea3a 4292 523b bfc6 173a
000002c0: 3d8d 843a 348b 3f3a ae1e 853a 334c d53b
000002d0: fc83 203b 7103 8434 0000 0000 13af 923c
000002e0: 3ed2 573c 9733 2e3a 4d08 623c 4944 cf3a
000002f0: 976f c23b affa 463a dfac 2f3b 0b95 e13a
00000300: 050f 203b 7265 b23a f7aa 1f3c c684 043a
00000310: ee54 4c3a 5cc0 813b c758 543b 3017 bd38
00000320: 8b05 a838 896a e23a 9da3 c03a e9aa 4e39
00000330: bb86 0f3a e460 0239 2ba8 2e38 98a6 603b
00000340: df80 d239 7f0f e131 0000 0000 5ac6 033c
00000350: 32b4 c33b 5066 ff39 0686 a73b b9e4 b33a
00000360: 37af 3b3b 3a8d ba39 d89a c03a b3bd 4b3a
00000370: 8b06 ae3a 8675 653a 559d b53b 4aab a739
00000380: 3499 393a b3f3 1d3b a592 d93a 64df e638
00000390: c2d5 f235 a5d3 893a d87b a73a 793c 1239
000003a0: a8ae d839 f1b3 8739 125c f238 61e6 d13a
000003b0: 7707 3d38 bf00 2a33 0000 0000 7ea6 a43b
000003c0: ef93 753b ce14 d139 34ce 5a3b 4281 453a
000003d0: d1c6 dd3a 2613 bc39 04db 803a c824 133a
000003e0: 09e6 673a e501 113a 1b5d 673b d314 c239
000003f0: f887 763a b42f b43a eae2 f139 ebe0 372f

exp_avg f4 [64]
-0.010502158 0.015553191 -0.01084225 0.0083969245 0.0066328486 -0.027539723 -4.3460503e-05 -0.0057371138
-0.005147592 -0.0084271245 -0.01216462 0.012466439 0.008573483 0.034205332 -0.00057888735 -0.011727993
-0.008567418 -0.042578362 -0.0034110465 0.0024693327 -0.00019434567 0.01426531 -0.004620202 0.010100885
0.0091095045 0.002003992 -0.00084791123 -0.019002996 -0.0007555649 -0.0020472833 0.027937736 -0.025154145
-0.01801138 -0.02072957 -0.043607585 0.0070798686 -0.0016796505 -0.005420436 -0.002932518 -0.02732907
0.026438395 -0.01028251 -0.0164887 0.012973481 0.008010947 -0.0017466639 0.0054075103 0.01957543
0.04677125 0.0023676637 -0.002414441 -0.011986534 0.024282463 0.018237403 -0.003840672 0.0042098425
0.018607892 -0.0035788452 0.013108844 0.012286706 -0.0044602486 -0.0041544004 -0.012732769 0.02966759
00000000: 3e11 2cbc d0d2 7e3c b1a3 31bc 4193 093c
00000010: 5e58 d93b fc9a e1bc 5c49 36b8 66fe bbbb
00000020: 22ad a8bb ec11 0abc 1d4e 47bc 0940 4c3c
00000030: cb77 0c3c e41a 0c3d 79c0 17ba c526 40bc
00000040: 5b5e 0cbc a666 2ebd dd8b 5fbb 87d4 213b
00000050: 45c9 4bb9 0cb9 693c 1065 97bb 2f7e 253c
00000060: 0840 153c 6855 033b 5c46 5eba 2cac 9bbc
00000070: 1a11 46ba b72b 06bb aedd e43c 1110 cebc
00000080: 9a8c 93bc 0fd1 a9bc de9d 32bd 3efe e73b
00000090: b827 dcba ea9d b1bb 7d2f 40bb 37e1 dfbc
000000a0: 5595 d83c f977 28bc 4f13 87bc b98e 543c
000000b0: 5940 033c 51f0 e4ba 7c31 b13b a75c a03c
000000c0: 3693 3f3d ce2a 1b3b 993b 1ebb 2b63 44bc
000000d0: 04ec c63c 9b66 953c c9b3 7bbb b8f2 893b
000000e0: 946f 983c 0f8b 6abb 7ac6 563c 2e4e 493c
000000f0: 4727 92bb a321 88bb 1b9d 50bc 7209 f33c

exp_avg_sq f4 [64]
0.0056673833 0.011644424 0.012401577 0.005770966 0.0065690055 0.0044682184 0.018462857 0.008199612
0.0051633082 0.0028868911 0.0055382596 0.0063196756 0.008218429 0.0047584902 0.009707134 0.0064410083
0.0030158195 0.0049694157 0.0045712837 0.0051081846 0.0038580073 0.004340298 0.007073904 0.009385835
0.015512618 0.011072729 0.0030648531 0.0060908142 0.01513302 0.0064298958 0.0058216606 0.007209599
0.011515485 0.0076046805 0.0074235285 0.011679202 0.008088684 0.0046388777 0.006740432 0.003551486
0.017451676 0.0055189016 0.0077112205 0.0031341903 0.009162912 0.0021593918 0.0043067164 0.01708781
0.017460838 0.007853193 0.0071734786 0.0070804846 0.004275596 0.009688087 0.008887645 0.0033459647
0.0049123317 0.004037819 0.004196408 0.0070686806 0.012323711 0.007308099 0.0067783324 0.01044294
00000000: 75b5 b93b 41c8 3e3c fc2f 4b3c 5f1a bd3b
00000010: d040 d73b 226a 923b 6b3f 973c aa57 063c
00000020: f830 a93b ff31 3d3b 4a7a b53b 4815 cf3b
00000030: 97a6 063c 1ced 9b3b ac0a 1f3c 180f d33b
00000040: 0ea5 453b 7bd6 a23b b5ca 953b 8f62 a73b
00000050: 9fd6 7c3b 0f39 8e3b 35cc e73b 0cc7 193c
00000060: a328 7e3c 646a 353c b4db 483b 7495 c73b
00000070: 7cf0 773c e0b1 d23b a1c3 be3b 803e ec3b
00000080: 72ab 3c3c af30 f93b 1241 f33b 205a 3f3c
00000090: 6686 043c ba01 983b d8de dc3b 0cc0 683b
000000a0: d1f6 8e3c e7d7 b43b 68ae fc3b fd66 4d3b
000000b0: 0a20 163c 9584 0d3b 5b1f 8d3b bcfb 8b3c
000000c0: 080a 8f3c aeaa 003c 800f eb3b 6903 e83b
000000d0: 4c1a 8c3b c8ba 1e3c 7c9d 113c f947 5b3b
000000e0: a0f7 a03b ae4f 843b 0682 893b 64a0 e73b
000000f0: 64e9 493c c778 ef3b c61c de3b dd18 2b3c
